dataset/linux_inferiority_model.pt (torch, 568232 bytes, 6 tensors)

hidden1.weight f8 [256, 12]
00000000: 8700 1d66 653d ab3f c673 c76e c7f5 d1bf
00000010: 8e37 7d58 0bec a6bf c8c9 4e4d a822 c9bf
00000020: efa4 1ca1 652e 80bf d370 ae87 dc29 bdbf
00000030: 7038 0b28 b495 a0bf 1319 881b 3620 91bf
00000040: 09de 4977 ff9e a63f 2ac9 f24f 097d d03f
00000050: 7623 3093 c7d4 ccbf 6769 4886 af96 b0bf
00000060: 0c9d b180 71d2 893f 9e79 a094 4668 d43f
00000070: f9a3 bdef 659d a23f fef9 e842 2ff2 a9bf
00000080: 6d99 f803 20ba c13f c006 7c92 6930 c4bf
00000090: b5c5 2f79 29cb b2bf e774 f9ce 2a57 90bf
000000a0: 648e 3436 71be c03f 7d95 a5b0 7d61 813f
000000b0: 1ef2 16ea 5c27 d0bf 2037 1a4c 75a1 c1bf
000000c0: f879 a137 06ce c1bf 31dd 5a90 d6fc a9bf
000000d0: d49f 87f9 6089 d2bf c348 3965 f51c a13f
000000e0: 8618 0143 1191 c33f fa16 64af 6a44 c1bf
000000f0: 0d74 cea9 9418 b4bf 9433 0a5d 4c45 c5bf
00000100: 23e5 d0ba 5749 bebf 1540 c739 781a c1bf
00000110: 3bf2 f7dd 1322 afbf 36d1 6f4b 8837 c53f
00000120: c8a8 7b6d e40c c03f 7604 9ca6 6559 c43f
00000130: 50b4 3c0c 28b0 d0bf 6966 d746 7701 c93f
00000140: d1d0 d734 84c2 ca3f e43e 3440 8991 cebf
00000150: 84da 2095 2bee c7bf 3fd6 9f73 8510 bebf
00000160: 67ad 7575 5d16 a63f 0661 34c2 25e7 d0bf
00000170: 5e9e d31d e294 c0bf ba2e 346f 4d40 be3f
00000180: beff 84fe 7820 cdbf 601d 115c 45fc be3f
00000190: 976c 2d20 0f44 96bf 7981 8d19 ace2 ce3f
000001a0: ab7d 244f a1c5 c13f 96ef e073 9607 cf3f
000001b0: 3020 02f0 263f 9ebf 7e73 3cfa 09b5 92bf
000001c0: bed4 4004 9cd2 d0bf 27a4 c6cf 3339 b4bf
000001d0: 4c47 aa55 7fa3 d0bf c469 63bb 111e afbf
000001e0: b3b1 1d45 094f cabf 0aaa ada5 d1a8 9f3f
000001f0: c945 3d91 16af c83f b6eb d8b0 9d7e ce3f
00000200: 549a 98c2 9f75 a23f d50e 5941 bdee a0bf
00000210: d2ba 44aa 8203 c5bf 8f21 e3e5 86bf 80bf
00000220: 2670 72d0 333f a5bf 1460 e7c4 e4a5 aabf
00000230: 1357 4cce 428b d0bf af39 3228 8bf5 b63f
00000240: 3ce4 9655 a3e0 cb3f 09ea a07c 268b c83f
00000250: f4cc 40e6 a993 8ebf 7937 1554 7971 cc3f
00000260: da3c 8a2d 0a7b babf 5f63 d132 ad3a c13f
00000270: bcbd 60a5 9baf c73f 75ed 6d80 df31 c4bf
00000280: 0ac5 dec9 adc7 b73f bf29 67c1 7e2b d1bf
00000290: ad73 7f79 264a c33f 1dea 5a48 62b3 c33f
000002a0: 3ce1 9560 2b59 d03f 1f9d 3cee a088 b03f
000002b0: 88ec 8aff a8d9 b53f 863f d378 f5e2 b83f
000002c0: b85e 159b 5257 d23f 7cec fe57 0568 d13f
000002d0: 912c 2f58 e747 cbbf 0898 3faf 022a d13f
000002e0: 1f9c ffa9 d935 c43f c65d 39e0 ef8a a33f
000002f0: c7de 2f6a 7b67 d03f 4a8b 8f37 62de bcbf
00000300: 5fdd 41df 80cc a83f c37e e14d 07e7 c4bf
00000310: 8d6e 4ed3 4530 c0bf 32b3 c210 cb56 d13f
00000320: 0e2f c90d 8369 903f ed52 e77a 262a c0bf
00000330: 226c d5d7 bba5 cc3f 1315 a278 5d6c c6bf
00000340: 0e0a d88a b829 c43f 93cb 06aa 25f4 c1bf
00000350: e0a1 0d82 8eeb b2bf d7f3 485b 7b93 d0bf
00000360: 3f73 ae21 e76c c33f 75b8 b7ec 1b0f bf3f
00000370: d94b 6a45 37b0 bf3f cd4e 0c7b a869 b63f
00000380: 36e1 7fc1 1920 c8bf 27bc ca5a d00c c93f
00000390: 6404 59e1 efed cd3f 7d3f 4efa 001f cf3f
000003a0: ac8f d562 fa59 b33f 6ab2 1e7a 1a0e 793f
000003b0: 7a17 252d a0ac c43f 0492 7ab4 ef64 8c3f
000003c0: b5d5 e221 e023 a13f be89 d4ff 72e3 8abf
000003d0: 491a 560f 9079 b53f f438 ba1e 9e0d c43f
000003e0: 88c4 3500 852f 733f 80f6 1052 8bd8 d73f
000003f0: d701 28e5 f2f8 b8bf d242 15a8 70c1 d03f
00000400: 3713 59bd 237b c0bf 5023 b144 13f0 c8bf
00000410: 78e5 fe48 0279 99bf fbd4 06a9 58cd c43f
00000420: 9996 7756 e9d8 c63f 8211 6b75 ee90 7c3f
00000430: 65e9 27ab b34c c8bf 1bd9 6b8e 25cb acbf
00000440: ac19 d5d0 949d afbf a561 6452 8965 cabf
00000450: 69c2 6d45 1a5a 76bf efad c518 5490 81bf
00000460: 0db4 fece 9bfb c03f 307d c82e 670f b63f
00000470: fb26 5bf9 da7e c83f 752e 595c 2e76 b43f
00000480: a6bb 34d5 0a4b cebf 02d1 b76f 2bd7 bbbf
00000490: fd18 818a edcb bbbf 853e 2920 1e73 b33f
000004a0: 4b84 4899 9125 c8bf ef71 ab76 a048 c43f
000004b0: 3055 cee1 db1e c63f 004e 3fb6 ecdf c53f
000004c0: 0fe9 a8b6 73b7 993f a1f2 abcb 917d d0bf
000004d0: 64bc 6f54 2b00 ce3f a065 55c6 886d abbf
000004e0: 4254 adc9 6626 a6bf bd96 fb53 69b1 c73f
000004f0: d6a4 7f78 ad82 ca3f 1215 0349 fa4b d3bf
00000500: cf29 b50c 26a4 aa3f c308 507c c9e9 c53f
00000510: bf92 8437 ab68 c43f 3831 e139 6ca2 d1bf
00000520: 8257 556c 1e25 d0bf 0c1b 02d3 9f72 c03f
00000530: dfb7 276c 023e abbf bb98 e110 d3c1 c2bf
00000540: 7d65 9a4b 7da2 bdbf ca5b cd27 7148 7e3f
00000550: 2ba8 9710 d268 bbbf 9be2 8205 1af6 bf3f
00000560: 698a e1e6 0450 c53f 10d4 c058 ee17 cdbf
00000570: 7d1f f9c3 4dbc cbbf 9cfd 17d7 9334 c0bf
00000580: 3c40 5158 c84d c53f b9c9 da9b f27e c0bf
00000590: 2835 8cb1 9c79 b23f 3b84 886b 9fc5 c83f
000005a0: a69a 29e4 c0f5 bebf 20db fa07 c7f6 87bf
000005b0: 93ae 16f1 0391 cb3f f8ac c546 a51e d1bf
000005c0: bf2a 685e 6df4 b3bf 1f61 a40f 61c0 cbbf
000005d0: 20a1 d4b9 fb60 c5bf bdec a19d 13d1 c0bf
000005e0: 4b38 e7d4 bb79 d13f f0da fd02 5c0f bcbf
000005f0: 5d5e cae0 b1d5 ca3f 5bda 390e 85a4 79bf
00000600: 4933 7c7c f601 ab3f cc0e d778 03db b03f
00000610: 5ce6 a3ae a0ca cd3f 495a 0316 cfbe c93f
00000620: cb5d e6a4 6723 cc3f 0ab8 9768 7260 c93f
00000630: 413b 1e8d 2fc3 c0bf 92dc 864f d289 b83f
00000640: e0b7 9938 5b8e bd3f 0250 5f15 2cdb c03f
00000650: 6c24 f4ef 5cfe a5bf 7844 e411 571a c1bf
00000660: 2917 e2fa 5d36 723f 8052 fb54 42fa ce3f
00000670: 406c 0efa d58d c23f ad28 721f d503 a43f
00000680: 13a6 8497 8ef1 d1bf 5d79 5755 1c14 c03f
00000690: 8e48 cb01 a1d9 d0bf 23ae df13 c0b0 a3bf
000006a0: cc21 eea0 00af bd3f 75ac a117 b6ea d0bf
000006b0: 9280 40ac 1c6f 9e3f 4f6a 4c9c 2489 cb3f
000006c0: b513 7151 41fc b3bf 16f4 1142 ebbb b1bf
000006d0: 03be 8d19 b469 d0bf 9c88 ec3c 5297 b5bf
000006e0: fa56 b85d cea6 d23f 040b fd0b d08e b0bf
000006f0: 91b7 cf8c ec2f c53f 0fcb 8721 93a3 a53f
00000700: a072 2005 e91e 81bf 3178 7847 bb7b b63f
00000710: 904c 1263 af09 643f 48ac a458 ac22 aebf
00000720: 075a fa15 ec8b b43f 788e 2318 15ba 823f
00000730: 800b c056 b084 cf3f 1863 71e4 993b c53f
00000740: f0ae 918a aadf cfbf 2d99 93b5 0bd2 babf
00000750: 5793 62ca 96e7 d1bf eb8d eaed 1334 c23f
00000760: 0e0f 3d60 e999 cf3f 3317 04d8 f5c8 c3bf
00000770: 3d7f 522d be60 a13f f0c3 0119 a120 c1bf
00000780: 1754 7ac6 e309 ad3f 38f7 deb6 51b9 933f
00000790: 122f c6cd 643a c1bf f71e 4d53 4ee9 92bf
000007a0: 973f 4956 5637 c23f 08bf 4a6f a671 913f
000007b0: dfa2 73f6 3b0b c43f 5f74 9a1e 7fe6 b6bf
000007c0: 7eaf 37b0 b98f a43f f562 2e8e 9804 adbf
000007d0: 6e91 7ae7 f20d cc3f ec29 ac9f a1d1 cb3f
000007e0: d425 a107 4356 b53f f119 708a 2c46 a53f
000007f0: b46a 1c46 c652 c4bf f025 8b84 fea4 cabf
0.053202789988518844 -0.28062616174957744 -0.04476962523641169 -0.19637016081612857 -0.007900995234722845 -0.11392000496420289 -0.03239214886490138 -0.016724439077756403
0.04418180781516063 0.2576316147561949 -0.2252435177508933 -0.06479928043737503 0.012608420123980689 0.31886448397008305 0.03635710288546785 -0.05067584697507142
0.13849258607769901 -0.15772742893755343 -0.07341250618607982 -0.01595751655837754 0.13081183573477795 0.008486730531056303 -0.25240252361598603 -0.1377398130029457
-0.13909986225458204 -0.050757126923992486 -0.28963493698256326 0.03342406139985734 0.15286460658734685 -0.13490041316997986 -0.07850007196107374 -0.16617731612168696
-0.11830662070214663 -0.1336202890511237 -0.06080686649872687 0.1657572143882448 0.12539344163753285 0.15897818217493737 -0.2607517356398761 0.19535723647168204
0.2090611703894241 -0.23881641039815016 -0.1869558790364928 -0.11743959496364996 0.043139381969775674 -0.2641081234483099 -0.12954355675104784 0.11816867794930888
-0.22755348613463683 0.12103684900022449 -0.02174399980445382 0.24129248855298238 0.13884369243986092 0.24241905840051164 -0.029537781142181696 -0.018268733881189096
-0.26285458007198403 -0.07899783919005242 -0.2599790894101843 -0.06077628529029114 -0.2055369937401231 0.030917430627065236 0.19284326640858598 0.23823901305317258
0.03605365038338407 -0.033071436144863554 -0.16416962922945416 -0.008177808657266165 -0.041497821040337876 -0.05204691794978103 -0.25849981447514486 0.0896841977248417
0.2177929084698763 0.19174653134707878 -0.014930083598392298 0.2222129498063017 -0.10343993770424068 0.1346031664022815 0.1850466306218389 -0.15777200480429668
0.09289060762855086 -0.26827973258027876 0.15070038731110227 0.15391186268773618 0.25544247085737815 0.06458478752448514 0.0853524803050495 0.09721311759790127
0.286579753349979 0.27197393029536676 -0.21313182645676368 0.2681891166124619 0.15789337921816668 0.03816938030348242 0.25631604547332326 -0.11276830536330099
0.048435237172209204 -0.1633004312779943 -0.1264731675881773 0.2709224380185332 0.016027496067450513 -0.12628632546570576 0.22380779303316084 -0.17518204107560872
0.15752321986663315 -0.14026327898099264 -0.07390680956962781 -0.25900157846973343 0.15176095146753174 0.12132429627647119 0.12378259129245296 0.08754971508124783
-0.1884796328374791 0.19570354874801518 0.23382376197153854 0.2431336614795291 0.07559170639939222 0.006116965700056024 0.16151811794605547 0.013864395804668035
0.033476833473666735 -0.013129137451476033 0.08388615011617974 0.15666557789194935 0.004683990034537129 0.3725918103626569 -0.09754865736613937 0.26180664457664904
-0.12875792260651917 -0.19482651571368104 -0.02487567492037132 0.16251667264229028 0.17849461290386584 0.006974154929313749 -0.18984075410100867 -0.05623738635579142
-0.06174912499641336 -0.20622364543011176 -0.005457022306345574 -0.008576066022860622 0.1326784859387832 0.08617253200690267 0.19137131858433762 0.07992830042456396
-0.23666510973404548 -0.10875197865954436 -0.10858044272854168 0.07597530636962276 -0.18864650711569406 0.15846639437121676 0.17281673932726838 0.17089613817971383
0.02511387636534673 -0.2576641549092447 0.23438016531824524 -0.053570055208818745 -0.043261730307371696 0.18510166741105208 0.20711296447487965 -0.3015123093612867
0.05203360467074313 0.17119711465790574 0.15944423876603328 -0.2755384984236744 -0.25226555423193286 0.12849805644165035 -0.0532074696564988 -0.14654005359915864
-0.11576064201144294 0.007393304837782952 -0.10706818490112428 0.12484896311333175 0.16650449059951036 -0.22729281743673413 -0.21668407505989853 -0.1266045379888795
0.166436236499523 -0.12887413606729384 0.0721681531396895 0.19353096724174343 -0.12093740053533483 -0.011701159411456497 0.21536301872162208 -0.26749545966477184
-0.07794841341835033 -0.21680844558501008 -0.167022195565786 -0.131380512207988 0.2730550364621009 -0.1096093661597981 0.2096464488611102 -0.006260413883515693
0.0527493502578183 0.065841881753893 0.2327462055907742 0.20113552641733382 0.21983047057868385 0.19825582606375775 -0.1309565962842161 0.0958529895932421
0.11545343524787155 0.13168860477037475 -0.042956260958882136 -0.13361633657089889 0.004446379765914257 0.24201230191706102 0.14495348653585616 0.03909173973905076
-0.28036846920676445 0.12561372916293126 -0.2632830159683487 -0.03845787279700754 0.1159515755554203 -0.26432564075248105 0.02972073365538159 0.2151227725197082
-0.07806785810778545 -0.06927366602936078 -0.2564516305492079 -0.08434022891427378 0.2914310374484185 -0.06467914860426666 0.16552502513462433 0.04226360115344196
-0.008359737843471493 0.08782549376380257 0.0024460244681648383 -0.0588582857329461 0.08026004349299153 0.0091439865104299 0.24623684154365932 0.16588138250769968
-0.24901325002735275 -0.10476754363080394 -0.27976007236639105 0.14221428982737847 0.24688451003213924 -0.1545703224912188 0.03394121459245845 -0.13380826684036107
0.05671607778382553 0.019261624132688143 -0.13459453628126333 -0.018468116602234876 0.14231375897588514 0.017035103361819487 0.15659284147047622 -0.0894545983996564
0.040159037362029956 -0.05667568908319779 0.2191756849544037 0.2173349408770514 0.0833475011469525 0.041551010035664755 -0.15877607749356104 -0.2081602236924449

hidden1.bias f8 [256]
00000000: 93f4 a275 7a32 d1bf af09 2915 e86e d23f
00000010: 6db1 6428 e812 b13f f16e 43bb a4d0 c33f
00000020: d910 70cd 6d15 6c3f 960e 1953 c9d0 b4bf
00000030: e0f0 510e 3c65 bc3f 7144 0759 3639 cb3f
00000040: 2586 e2c7 444f c43f 6044 e14e dd0d c83f
00000050: a330 f531 5ffa c5bf dc39 99e2 92db cc3f
00000060: 7034 b66b 8fa7 d1bf 0ee4 c984 58ad be3f
00000070: 355a b77e c85d cdbf 199f 5eb0 92d2 d03f
00000080: c766 0bac d6e3 aebf f833 59d8 8ae2 ca3f
00000090: fffb 405f 974f b1bf 8bc1 8aaa 32dc c43f
000000a0: 7c4e 3bde 22c7 d2bf ed6b 8885 b225 d0bf
000000b0: fdeb 2a05 927b cfbf f61a 95ab 2520 c9bf
000000c0: 7dc7 b693 2e92 c03f f5df d3cf 1bc3 c2bf
000000d0: 1b65 c963 6b25 bdbf 4392 b546 ff24 b8bf
000000e0: 4a0b 0d3d cd79 d13f 4ced 7672 e8eb b63f
000000f0: 6657 4639 d6bf a83f 6df5 6bc1 0401 b43f
00000100: 7acc 583c 2a33 ca3f 00a8 49ad e8ea bbbf
00000110: 5535 d3d6 f9aa 9fbf d7a3 5ddf 05b4 cdbf
00000120: a8d4 27ba 3409 cabf 772b ec59 e348 ca3f
00000130: 3e5f 08f1 959e c33f 14a6 2d6c a741 cd3f
00000140: ca98 b421 acd6 c73f 526a 3e90 a585 d1bf
00000150: 55ab e129 6656 c03f f109 d07f 64df a0bf
00000160: f6a5 4c81 1ceb c03f 07aa 531e 5c6a 923f
00000170: 509c e414 697d c73f 1f96 63ea 9484 c83f
00000180: 745a bebf fe92 b73f 31b4 e748 b765 7c3f
00000190: 4d4d 19de 9c41 a73f 2b8a 9827 22de cf3f
000001a0: db40 43d3 624d b13f 5bcb b466 a19b c83f
000001b0: c183 fd0b 50d1 ab3f 9b8c 21ac 4cbc c33f
000001c0: ec19 41af 3da8 c5bf 4659 b7c8 7ac5 bb3f
000001d0: 37b8 13f9 c639 c03f 12c3 06dd 004c c2bf
000001e0: db2b 12aa 6d44 c0bf 71e9 2e92 68eb c93f
000001f0: a95c 8470 b124 9ebf 7dc0 b530 f41b bcbf
00000200: b801 1392 82ec c63f 5c70 a4a2 e7e3 d03f
00000210: d80e 7d7a 0a80 c93f 3089 3a52 45eb a2bf
00000220: e713 2e5d 9ef6 b4bf 2634 eb91 e172 c13f
00000230: 759e ceea 28b2 b83f 9036 9197 ae85 c5bf
00000240: 3b68 1853 a53e b43f 1885 0cd3 3ced ca3f
00000250: 440d ba4c 7127 a63f fc4d 35ec 799b ae3f
00000260: f06a 3d3c 4286 aebf 6a0e c3c9 c313 c4bf
00000270: b1c4 332d 296f bd3f a3ac 7b81 a336 b8bf
00000280: 6390 165d 6300 d0bf ec33 14ee cc58 aabf
00000290: c44b efa5 e181 bebf c441 54ab cf4a c13f
000002a0: 1f7a ca72 4024 9e3f ce26 c945 dc0b d03f
000002b0: 8d8c 974d 1739 b23f fd71 e000 382a bb3f
000002c0: 8f28 93a2 523d a2bf f13a 0d45 9eb5 c03f
000002d0: a1c5 4c32 09d4 c5bf 7401 8b2a 60f7 b33f
000002e0: 29c6 c6c1 94d3 69bf 5a4e 6752 9687 d13f
000002f0: 1ad5 7e8b 80d2 a63f fb52 3242 258d c7bf
00000300: 8092 527f cbc8 c4bf 395a 98f0 84e7 a9bf
00000310: 0f4c 5f0d 8b4f b7bf 5316 732c 8be6 b03f
00000320: 09ee 5b32 f2ce cebf 2dce 9cca e623 c4bf
00000330: adf4 cd57 d99d b93f 5f19 82aa 36e5 c33f
00000340: fc53 516e 42c5 d03f 84d0 818c 5b21 babf
00000350: 8939 a626 730f c83f 2af2 83b2 fe78 cc3f
00000360: ad1c 7f90 ed84 d2bf b4d0 abcd 6080 ca3f
00000370: 53fc 9d77 36f0 a63f f033 d139 353a ca3f
00000380: d6cc 7d21 fc46 b93f 3b6a 1a10 b6fd ce3f
00000390: 051b 659d 9c63 abbf d7cb 0444 2554 ccbf
000003a0: da30 8838 3705 ae3f b61a 5078 95c9 c13f
000003b0: a1a6 9d8e 3648 c73f 87a4 686f aa11 d23f
000003c0: 367e 2d09 a4c3 ca3f 92cd def0 423a b03f
000003d0: 2fe5 8990 afa5 c7bf 6ae0 f631 d052 d2bf
000003e0: 2ade b2c5 d7dd b1bf e029 e634 b719 ad3f
000003f0: eb53 2c7d 493e d23f d611 5596 4b9b c13f
00000400: a2c4 ca5e d718 aebf 87b8 b51a 400e a5bf
00000410: 5bf0 396b 771a a0bf 4740 3cf6 e291 9b3f
00000420: fc61 a2f9 3d18 c5bf 259f 15e4 9387 983f
00000430: 4ed8 463d 1271 cc3f 1443 f833 c4c3 71bf
00000440: 90b3 002e 38e7 b0bf c002 ff7c 44d2 cd3f
00000450: 87b2 6745 b894 b5bf 9646 bc17 2a2b a53f
00000460: d36d c05e bba8 cbbf c7b9 72bc 066d c93f
00000470: c44c 7dbe 7264 c4bf e49d 19b0 5ba6 d1bf
00000480: a022 fc5a ccde d13f 945e b467 255d d2bf
00000490: 611a df15 0372 b1bf 71a6 e418 7372 bbbf
000004a0: a700 7f80 927a c53f 6620 6b3c a727 d23f
000004b0: df74 33fc 1924 a0bf 7e79 9ad3 52f2 c5bf
000004c0: aa1f a491 cf88 c03f d880 5e3a f6b0 bdbf
000004d0: cfd4 2eb6 2781 cebf 7276 fdd1 7761 d2bf
000004e0: 3a65 90df 47e9 ce3f b57a 2d30 70ae b8bf
000004f0: e3ee 285b 8a9f d1bf 9df6 8487 b488 99bf
00000500: f7b8 c7f7 f0b7 923f 0d04 71c1 8780 c1bf
00000510: 4e1d 9056 f1f6 b03f 5cf9 5419 05fe c4bf
00000520: 3c3c d5c0 3d9e c4bf dc04 d383 86ba b33f
00000530: db21 f062 0263 9f3f b8f4 ac08 821c c23f
00000540: c66b 5fbb df00 b13f 274b d9e3 425a cd3f
00000550: dcc6 3e39 f496 b4bf f5ed 0672 9857 c13f
00000560: 31ee 0b1c d811 c53f 8a1e 5364 433c cd3f
00000570: 2ca5 635e 3c61 c83f 62cb 0529 693d bb3f
00000580: 9a99 dcfa 719f d0bf 26c5 1e4b cb17 bb3f
00000590: c481 271e a6f6 d03f e821 40a5 985d c3bf
000005a0: 9442 ea0c bd0a a83f ae0b 432a a095 c23f
000005b0: 039f 67c0 8604 abbf 8617 076a a6c4 b3bf
000005c0: e734 6b04 ab2b b5bf 14ab 85b9 07ea a33f
000005d0: 08b5 5bbf 054c c7bf cd17 a31b 58cf ccbf
000005e0: 2e8d 05db 946c 6e3f 9193 761d 1390 98bf
000005f0: f8f6 f4f9 bdf9 d03f 1527 6d5e c7a5 c03f
00000600: 13a3 1759 36ed b23f b641 b1ae 2293 903f
00000610: e6c4 a9c0 4803 64bf 0583 abdd c192 d23f
00000620: c39b 26ec 6aef cb3f 901b 0cdd 1c03 c13f
00000630: 6920 1d76 3879 c7bf 1311 46ab 5a3e b9bf
00000640: c228 ce0f 3a9a c7bf 6c83 e20b bc0d a3bf
00000650: b27e cee2 0ec3 ccbf e6ef 8f9a 12c4 a53f
00000660: f985 cc6e 37e7 c73f 2ab5 7dbc a4f1 cc3f
00000670: d8a5 869b 0ab8 ca3f 323f 177d bc33 b33f
00000680: d448 afe3 0eed b23f 3666 95a0 c2fe 98bf
00000690: d7d9 5099 d4ad b1bf 8505 7343 9595 adbf
000006a0: e639 b143 364f d23f b9cd d07d 2240 8bbf
000006b0: 3377 45d8 50b6 c63f 0c24 2cbe 8ce3 aa3f
000006c0: 91fa f94f 6b47 d03f a648 ce31 5a27 d2bf
000006d0: 6aa9 2c8f 3677 ce3f 2111 7ab9 233f c33f
000006e0: 6c93 4140 680c a2bf 02aa fd08 cd3a d03f
000006f0: d095 3ad7 ba27 a53f e528 1144 d4b0 c7bf
00000700: 9196 0f0d 4094 c7bf e06d b03b f52e ccbf
00000710: 3c0d 1125 2b02 d03f 3ce7 bff6 5f53 a4bf
00000720: f4db 44c7 2ec1 d0bf 1885 f4c7 f408 bebf
00000730: 00e9 4dff cd35 b03f 3a23 c9db 1533 cdbf
00000740: 88d8 0f07 682e d13f daec 26c4 7ffb b4bf
00000750: 8869 5400 471d c33f 4c45 5229 6764 8fbf
00000760: 8a21 090f 6a68 54bf 4a21 51cb 72c7 b93f
00000770: 8c22 d329 ed27 d1bf 6872 5704 938f c8bf
00000780: 0afb e2ec 51f4 c83f 849c 7b2b 5b09 d23f
00000790: ef56 79ff dacd c13f 1d0f 3eb0 add2 a13f
000007a0: c27c 9514 334a cd3f 081e 07af 006d cebf
000007b0: 061d c791 028c c33f cd23 3bb9 466a bc3f
000007c0: 4b79 c7a9 8062 71bf 25b6 e00c 02d8 6dbf
000007d0: f757 2bd3 405f 75bf c523 238c 7077 c1bf
000007e0: 86fe d2f5 5a96 cabf 0c37 e8f9 65c7 a33f
000007f0: 8510 2dbe 2582 d0bf 05c8 9f61 798c a3bf
-0.2687059544367198 0.2880192000049204 0.06669474588551845 0.15480479377480763 0.0034281868533999446 -0.08131082800633246 0.11091971730815287 0.21268348071183454
0.1586690879822054 0.18792311049995458 -0.1717032426771584 0.22545085968381684 -0.27585206526493433 0.11983254663381634 -0.22942453563037338 0.2628523561820529
-0.06033202028420486 0.21003852428330538 -0.06762071681531266 0.16296990706679212 -0.2934043092948071 -0.25230086365053134 -0.2459585690720302 -0.1962935531430145
0.1294611188182521 -0.14657924316247742 -0.11385222612570482 -0.09431453205395095 0.273059186573097 0.08953717035813219 0.048338598720120626 0.07814054224214369
0.20468643137573733 -0.10905317526490421 -0.030925658928756167 -0.232056364121745 -0.20340594377163268 0.20534936800717293 0.15327715176749196 0.2285661009039336
0.18623878141187894 -0.2737821491843181 0.12763669056888696 -0.0329543500920585 0.1321750289292109 0.01798385558223894 0.18351472397009383 0.19154607243324137
0.09208671742667623 0.0069329413949903865 0.045422460662531174 0.24896647389785306 0.06758706720143286 0.192249465131307 0.05433130403867593 0.154183944748273
-0.16919680650080637 0.10848204994485852 0.12676322137798632 -0.1429444388609445 -0.1270882683205333 0.20249659669736844 -0.029436848156447457 -0.10980154217918599
0.17909271366626256 0.2639102066330048 0.1992199991310517 -0.03695122364776393 -0.08188810133840684 0.13631839394511863 0.09646850330920549 -0.16814215088600237
0.07908089903540454 0.21036491685030323 0.04326967298131959 0.05977993973160875 -0.059618062833313945 -0.1568531737485615 0.11497742990083527 -0.0945837203141076
-0.2500236901344179 -0.05145874410855086 -0.11916933346883157 0.13509555688552954 0.029435164457590198 0.2507239037991952 0.07118363994918493 0.1061129572048642
-0.035624105783044084 0.1305425488630685 -0.17053332286881775 0.0779934028496479 -0.0031526475342722638 0.2739005856248916 0.04457475378823457 -0.18399492008452242
-0.16237777439996037 -0.05059447705223303 -0.09105748249503186 0.0660178168792183 -0.24069049319210503 -0.15734562771977903 0.10006483453431043 0.15543254209132848
0.2620397641488237 -0.10207149677609278 0.1879714907376633 0.22244247166226333 -0.28936328040112863 0.20704278986489089 0.044801427938175785 0.2049013645468274
0.0987393934026842 0.24211765085495238 -0.053494352544069236 -0.22131791897990524 0.05863354268157801 0.1389643514123315 0.18189126933730385 0.2823282325721909
0.20909548233156422 0.06338899975417281 -0.18474382932235175 -0.2863045204098912 -0.06979130341175535 0.05683681984654121 0.28505170082035985 0.13755173531002524
-0.05878327400331186 -0.04112434698150574 -0.03145192321696363 0.02692370059872953 -0.16480230988669564 0.023954687877817755 0.22220066062954164 -0.004337088029857456
-0.06602812884439246 0.23297935584380092 -0.0843005341955153 0.04134494342555432 -0.21608678938433332 0.19863971902436914 -0.1593154363750725 -0.2757786960341646
0.27922352681393114 -0.28693518760108216 -0.06814593585941388 -0.10721511228316573 0.16780310892318548 0.2836702432655386 -0.03152543262124551 -0.1714576276035124
0.12917513476736292 -0.11598147320774232 -0.23831650157595738 -0.28719897753567303 0.2414941636678039 -0.09641171623432394 -0.27536257650693424 -0.024935551425406478
0.018279805300999787 -0.1367349333322924 0.06626804698327257 -0.16400207268629685 -0.1610791389052525 0.07706490248075987 0.030651128090569784 0.1414949934350369
0.06641958546190016 0.22931705594472726 -0.08042837522114205 0.1354857022068782 0.16460706109488535 0.22840158842722175 0.19046740158891262 0.10640580417184034
-0.2597317647763703 0.10583181938161043 0.26505425400503335 -0.15129383152840536 0.04695692808775678 0.14519121230668247 -0.05276890848818818 -0.07721939171378098
-0.08269757135277055 0.038894883534189045 -0.18200752109206797 -0.2250776419588746 0.003713885053160524 -0.02398710124329601 0.26524304780819774 0.13005916700995415
0.07393207240205539 0.01618627730596397 -0.002442972273734345 0.29020735404451187 0.21824394732285954 0.13290749352765063 -0.18338685767435273 -0.09860769921767014
-0.18439412852996467 -0.03721416134909003 -0.22470270227949168 0.042511540763342556 0.18674366865256767 0.22612437442459427 0.208741498890318 0.07500818304037862
0.07392972048481578 -0.024409333277935562 -0.06905869238912686 -0.05778185318332433 0.286084714990379 -0.013305921043957324 0.17743883667110935 0.05251731702271209
0.25435908136561475 -0.2836518751511313 0.23801309576931412 0.15036436611638584 -0.03525090965630437 0.253588923244621 0.04131873967461852 -0.1850838978155657
-0.18421173703898266 -0.22018304266462874 0.25013235683237034 -0.03969859969215725 -0.2617909379945893 -0.11732416040151283 0.06332099421516446 -0.22812150222514466
0.26845741929663136 -0.0819625715147824 0.14933097377872806 -0.015328222225692877 -0.0012455974321189133 0.1006995912913499 -0.2680619152493271 -0.1918815394591491
0.19495605532389276 0.28182105299351456 0.13909471010509075 0.034810474170653395 0.22882689004015871 -0.2377014975192966 0.15271026723915088 0.11099664709321573
-0.004244330015778462 -0.00364303970766035 -0.005217793676555608 -0.1364575084938037 -0.20771348002562123 0.03863066363929421 -0.25794356891515974 -0.03818110768033026

hidden2.weight f8 [256, 256]
00000000: 6225 3fcc ab79 a83f 8410 1d10 3abf 9fbf
00000010: 01a3 7be0 f0d6 85bf adf5 53ed 59bb 7dbf
00000020: 1169 c9ae 2529 aa3f 032a 91f5 9627 a8bf
00000030: 1439 7566 7b04 7f3f c953 ce17 6de6 a03f
00000040: bea4 8f4a 8552 683f 5c34 b1f8 0cfd a6bf
00000050: 64aa 7d45 d730 79bf 4825 7059 771d 60bf
00000060: 29e3 ede5 e162 a83f 09de 278f 1388 a53f
00000070: 85e2 9546 06af b23f 8441 32be 029d a5bf
00000080: 6eda 6c08 05d2 883f 6c23 c987 1e0d 9a3f
00000090: dd69 baab 3524 a1bf 427d fdcc df21 97bf
000000a0: 60cf 18a0 0646 ac3f 59e2 f5bc d8c5 98bf
000000b0: d7f5 afde 8cb8 a83f 5a21 88bd dc25 97bf
000000c0: c5f8 fc82 a73c ab3f 1c22 02b9 4bbd 973f
000000d0: db05 6f9e c17e 9a3f 63e2 f018 4283 963f
000000e0: 5d39 0608 0b46 a6bf efb8 2d63 d30a a13f
000000f0: 3285 b922 a031 84bf d5a1 de97 6110 a8bf
00000100: 84aa c3f3 172a 9c3f fadf ea14 62c6 a3bf
00000110: 490e 2c25 6d9d a13f 2a3d 8fb0 bd79 86bf
00000120: a46e b0e1 9d0e a93f fd38 1e23 10d3 a9bf
00000130: d957 43b1 ca56 a9bf 7e8d fa6a fcda 683f
00000140: 9040 4120 8291 abbf 78d8 6be3 0761 b03f
00000150: 8cf3 2b5a 6955 293f 30ed 3588 c5c4 91bf
00000160: 5ed7 6824 7090 a83f 8100 f3f5 c01f a93f
00000170: 2bb5 d0dd 1a2c a83f fe69 5765 7ca5 a83f
00000180: aba5 2ffc 9f80 93bf 4272 3ddc b8c1 903f
00000190: 08be 7d83 9331 a3bf 7ad8 3ea3 75c8 8fbf
000001a0: 2fdf a204 53fe a7bf a4f5 6d5a b273 59bf
000001b0: 4621 0298 e366 99bf c21b 0357 88a1 a43f
000001c0: a6d8 7e7c 1d83 a33f 9da3 0159 0bc5 98bf
000001d0: 465e 4221 7f4a 90bf 782f 77e1 c7ed a3bf
000001e0: 374d 6352 c65f a63f 49a2 fe4e 27fa 933f
000001f0: 6094 024a c454 a3bf 122f 2577 5924 9c3f
00000200: 40e8 6c3f 3c48 7d3f f43b a84c 9201 acbf
00000210: ed40 86b6 a349 873f a709 b40e 39fc a83f
00000220: 6fc7 c87f bfff 71bf 3eb1 ccc8 8350 adbf
00000230: 6da1 efd7 a094 aa3f a44e b43b 9c6f ab3f
00000240: e9d0 c2ff ad21 95bf ef29 bc9e 55e5 87bf
00000250: 2f03 9e9d 727e a43f cfa0 ccf9 f3cf 9cbf
00000260: ed85 3962 754a 933f f2df 1950 127d a9bf
00000270: 3236 cd74 47b5 ac3f bcf8 1b77 a505 a23f
00000280: f42a a913 c525 553f 95cb 08a3 c727 a7bf
00000290: 0e31 dfcc f59a ad3f 376d 7a16 0e5c 8cbf
000002a0: 77c8 306b d572 a13f 77ec 5030 8152 73bf
000002b0: e100 cf92 22f8 9ebf 1efb ca9b 8644 3ebf
000002c0: 2782 a666 3b57 99bf dc7d 9a21 48f0 a8bf
000002d0: b122 7a6c 4844 ad3f 54c6 f68a ce1b 92bf
000002e0: 084f 1f04 c2ac 07bf d8c9 783f d9f3 90bf
000002f0: 10ec 647d a370 acbf 3671 7a59 150c 9ebf
00000300: e53f 103d 42e4 a1bf fb35 a8b7 b57d a03f
00000310: 5a95 6526 1fcd 98bf 0a9d 0a56 d789 a63f
00000320: 8e42 1580 b12b 7d3f 1c22 5f9b 5a49 74bf
00000330: 61bc a406 2769 94bf deda d7b4 bfef 81bf
00000340: f973 094f 2beb a53f 328c 215a 00f4 a03f
00000350: c609 7acd 1041 a43f 1cec 9f52 628a a0bf
00000360: e4a8 69f2 d5b5 abbf 524d a1fe b3e2 2e3f
00000370: 035b dae7 23f9 40bf 7f64 2f36 aa67 afbf
00000380: 6ba4 45f8 b949 6e3f 469b 44ee ef53 9dbf
00000390: 8217 4582 e8da a53f 115b 4ec1 8098 8fbf
000003a0: 7718 e744 50aa 96bf df26 68da fde8 993f
000003b0: 017e 55ca 23cc 803f 914e 2294 8494 933f
000003c0: 8b2c 6b5c 79af 6b3f 2e86 6f42 dc12 a33f
000003d0: a782 9253 4626 693f aae6 d040 b0a7 a73f
000003e0: 8fc3 7db3 913b 933f 0bc5 ef12 01ed a3bf
000003f0: 80f0 8544 720b b03f 781c 07f0 63e4 a0bf
00000400: 0149 2e0a 2955 a0bf 5c3a d2d0 1d1b 7b3f
00000410: 7334 9b64 ee54 8cbf 1c8e 1734 02a4 953f
00000420: 525e d1f1 32ac ab3f b475 0484 2d1d a63f
00000430: 8d32 9d0c 7b10 aa3f 822b 5220 6b28 a43f
00000440: 6c66 176d 42f3 953f 4c50 9059 3139 a3bf
00000450: 827e 2e3c dad1 a83f c3b8 1756 f074 903f
00000460: 5b0f 4b3a cbb5 983f 2df4 3312 8e26 8ebf
00000470: 5950 8118 6167 97bf c1ae 68dd 34d6 92bf
00000480: 54df 59f8 5cc5 96bf b347 faf6 fb84 b83f
00000490: 7021 f99d a442 7c3f b5e6 2b83 fc20 a43f
000004a0: 22ff ecea 6dba 9c3f bae9 493f b76f 8e3f
000004b0: a06e 5867 22e1 a83f 5ac4 ed0c ec76 a23f
000004c0: 21ed cd19 8ef8 a03f 4b7f ca2a 3823 9c3f
000004d0: a45b bd31 2fc1 a73f db35 3d07 6e6a 873f
000004e0: acc0 51a0 85c9 733f 3f56 7c10 3dad 94bf
000004f0: e535 a26c 4d73 923f 2770 29fc dd93 b03f
00000500: 58c7 0bea c5e1 9dbf 7799 229e f9ac 70bf
00000510: 7846 52b2 3f00 abbf 6406 3cac 971e 963f
00000520: fd2e 0e96 3aa7 9b3f b271 45c0 ebf8 903f
00000530: 74a9 43a4 3445 ae3f 62b9 8246 9d67 9e3f
00000540: 25a6 e569 89a5 663f 8278 4ae6 8eec 98bf
00000550: 68ef 3919 f4db 90bf 4eff 6b7a 0020 adbf
00000560: 340a 9481 9a4f 9a3f c2fc c7b0 fab8 ad3f
00000570: 7b68 3bb0 cf44 a8bf 57e6 bb5b 6215 adbf
00000580: 02b5 69cd ec2c 8dbf dcf1 5a28 2345 a7bf
00000590: a30b d847 db0e a93f 6f68 0d6b 8750 7bbf
000005a0: 2b9d 4f80 fa53 a03f 6836 842c e929 88bf
000005b0: 7da3 f1ad 9d3b af3f ec00 e31b 7650 a9bf
000005c0: 79c7 dce3 85bf a43f 3fe4 5b4c c094 9b3f
000005d0: 88f5 c95e 144d 9b3f 91ab ce71 1055 a03f
000005e0: c2a9 e16c 0f4c a43f 30cd e2b4 bb4f 9cbf
000005f0: 743e 6f29 648d 993f bd98 c754 8ad1 a93f
00000600: 3ad1 4ca9 6d02 b0bf fcab 17c1 c064 a33f
00000610: 3a1c ed3f 728a a6bf 15ee ab22 28f6 a9bf
00000620: 13bd 1866 2e8f 6f3f 9e01 1725 7a15 95bf
00000630: 98b5 0a84 036d 913f 51e6 38c1 73e1 863f
00000640: 5821 5ce6 a253 a0bf 957a 69a9 87ef abbf
00000650: 8cd4 6ce6 ecd2 9d3f 6174 ec64 13f1 96bf
00000660: 21d7 8e41 549d ac3f 9410 8220 058a a23f
00000670: a723 9f9e 087a afbf d5de c8d0 4154 ad3f
00000680: 7b23 f1c6 a3b6 a33f c03f a303 0ddb 993f
00000690: f559 ca5d 34f6 783f 60ea 2565 ca26 79bf
000006a0: bda6 79aa 3a50 99bf 59c0 7f37 3c6d 82bf
000006b0: 40c9 953f 5ed8 afbf 4a4d 0621 9451 863f
000006c0: b68e a17d 1956 803f 4826 2bdc a65e ad3f
000006d0: ea8f 4114 7d27 afbf 115e 97a1 23c1 aebf
000006e0: 323c ecab 62f1 aa3f 715a d761 46d1 9a3f
000006f0: d83b 73aa da2d a9bf a3c0 2bea d039 af3f
00000700: 461d c965 90b9 54bf be32 47aa e04d 92bf
00000710: 3dbf 110c 0055 9c3f f437 f2ba 1436 993f
00000720: 9f66 450c 8ed2 84bf c660 9af3 6525 923f
00000730: 19cc e9e6 f124 af3f 2d14 13e2 5300 a23f
00000740: efbb 72cb 8d6c 9bbf 52a1 c3c7 ab31 a1bf
00000750: 48d3 e418 dcaa a1bf ff60 a560 a868 aebf
00000760: 0187 0c70 49ae a1bf 1077 baef 0d22 88bf
00000770: d494 f8f5 492c 96bf a495 da7e 9701 913f
00000780: a80c 14ea 40da 953f 2b7a e4d2 8100 a7bf
00000790: 9300 ab7f a038 8e3f 91ff ecc8 8d9f 9b3f
000007a0: e18f 3644 5ae9 a0bf ed3b 6077 6186 9e3f
000007b0: 621d cfc8 dd23 a23f c3b6 41e1 9ebb 9dbf
000007c0: 4714 a556 6b07 a33f 1b25 1520 4a31 a6bf
000007d0: 7def 38ee cf45 6fbf 1033 c8ac 63bb a33f
000007e0: 75fd d2a1 89d0 92bf 600d fa5d 5ebf 93bf
000007f0: 4445 2ddc 3863 a1bf 52c1 2a34 5d76 a5bf
0.04780327671285069 -0.031002909883014698 -0.010663873530079028 -0.007258750226580996 0.051095178209566446 -0.047177045322843746 0.007572633773931043 0.03300801196670695
0.002969036421280962 -0.044899373395858005 -0.006150093940827082 -0.0019671755831082473 0.04762941295388707 0.04205380556589595 0.07298316214827068 -0.04221352168781592
0.012119330710999434 0.025440671003056733 -0.03347938271800264 -0.02259015740071147 0.05522175506885563 -0.024192225011093835 0.04828300684310321 -0.022605370586491126
0.05319713090874382 0.023183043639194975 0.025874162001633266 0.021985085270190285 -0.04350313637688672 0.0332857187812453 -0.009860278186524771 -0.046999978817726586
0.027504324200814625 -0.03862291817989667 0.034404192721947675 -0.010974389982861672 0.04893964176173185 -0.05043840817153187 -0.0494902936349459 0.0030341081654385307
-0.05384451526390521 0.06398057272221702 0.0001932803252983308 -0.017352186621321042 0.0479769749112353 0.049070386908625536 0.04721149404245247 0.04813755738333113
-0.019045352713794077 0.01636399120558197 -0.03748761158101038 -0.015519064945561423 -0.04686221534342249 -0.0015534631472456728 -0.024806553032733512 0.040294895764922525
0.03810970444412591 -0.02418916445495577 -0.015909181981071073 -0.03892349841370807 0.04369945293151505 0.019508947559787413 -0.037756094011719865 0.027482412240075034
0.007148967116160476 -0.054699489457668365 0.011370924956992623 0.04879930786593727 -0.004394290965636801 -0.05725490404288046 0.05191519390047259 0.053585893905759435
-0.020636290297901736 -0.011667889506061761 0.04002721952475096 -0.028137027856389104 0.01883872425094595 -0.049782345083201465 0.056070549972542585 0.03519932822199354
0.0012907433107495732 -0.04522537102857097 0.057822877177018936 -0.013847456036549672 0.034079236349854485 -0.004717354434485724 -0.030243435106741216 -0.00046184812871878807
-0.024746826305660854 -0.0487082043666722 0.05716158222373247 -0.01768419955414509 -4.515616502911822e-05 -0.016555208682072692 -0.05554686456385849 -0.029342969499894532
-0.034944601015126676 0.03220908991725576 -0.02421997711043864 0.04402039456663871 0.007121747360841936 -0.004952768262179077 -0.019932374744879747 -0.008758065897365549
0.04280982341581558 0.033111582758259664 0.039558911402326966 -0.03230578669168713 -0.05412167152538119 0.00023563811493208326 -0.0005179810829812618 -0.06133777533950368
0.003697264883318276 -0.028640507619594822 0.04268576231201761 -0.0154275950424512 -0.022134069638717748 0.02530285497235851 0.008201865780107733 0.01912123827112439
0.0033795709926827725 0.03725326834661434 0.003070008617740722 0.04620123664103677 0.018781925754811687 -0.038917573510739066 0.06267465756349289 -0.03299248032595242
-0.03189972161557542 0.006617657153710068 -0.013833868451366116 0.021133455686039068 0.05404814912679669 0.04319135891476425 0.05090698746662268 0.03937086839240235
0.021435773762141272 -0.037545721228668144 0.04847604736937418 0.016071086172751558 0.024130988533911473 -0.014721975260267051 -0.022855298157381607 -0.018395257962920967
-0.022237255724092478 0.09577917842605536 0.006899493251303887 0.03931416608061281 0.028054921592455824 0.014861518496435678 0.048592639079484856 0.03606355340787877
0.03314632477755653 0.02747810136008803 0.04639575464414428 0.011433467479629414 0.004830858209160887 -0.020192102557379462 0.018017968898268583 0.06475627332969279
-0.02918156853679163 -0.00407121188087555 -0.05273627330565217 0.021601076018674795 0.02700511494508272 0.016574557886416215 0.05912174706630227 0.029692132404926304
0.002764480958991527 -0.02433989792427172 -0.01646405605286763 -0.05688477987678074 0.02569428840525685 0.058051904754387276 -0.04739998842497158 -0.05680377359199145
-0.01424584390516737 -0.04544935100190958 0.048941471595774354 -0.006668595292319875 0.031890705264056095 -0.01179868857482376 0.06100170849169382 -0.049441996482984724
0.04052370459102312 0.026934628162937676 0.026661222730117312 0.03189898862122854 0.03964279369468528 -0.027647908130075283 0.024953427342380555 0.050426791047173826
-0.06253705390264921 0.037878058977945245 -0.044025011352055235 -0.050706152183888666 0.0038524538256507006 -0.02058974124315826 0.01701741689128297 0.01117220338265948
-0.031888094539740564 -0.0545618433286467 0.029124929012330145 -0.022404006037607952 0.055887825968439005 0.03620925924136134 -0.06147791801738061 0.05728345559731244
0.038502805743127554 0.025249675128008908 0.006094173961761919 -0.006140509229562413 -0.024720112471561907 -0.008997412151046701 -0.062197633039334566 0.010897786386329007
0.007976721903282562 0.0573627609024468 -0.06084814903513787 -0.06006728503751558 0.05262287472407258 0.02618894550490797 -0.04917796450319373 0.060987976632419526
-0.0012649450428784 -0.0178752044610515 0.027667999970105262 0.024620365057266683 -0.010167226552471318 0.017720787995671804 0.06082874244466314 0.03515874991129695
-0.026781287710658516 -0.033582084784770885 -0.034506681479263224 -0.05939222507248764 -0.03453282826218463 -0.01178370368807749 -0.021653323781852432 0.01660763465647154
0.021340383803374025 -0.044925744050705006 0.01475644483196018 0.026975837124382066 -0.033030339075849964 0.0298094967948223 0.03542988849909069 -0.029036028383805822
0.03716597969700124 -0.043344799438793845 -0.003817468752258023 0.03853904232173566 -0.01837363290974055 -0.01928470085705436 -0.033960129620604934 -0.041918671243709085

hidden2.bias f8 [256]
00000000: dcf4 3151 cb96 923f eb0a 28c6 dad2 9bbf
00000010: 328d d8c4 9c7c a6bf ec21 cee4 e575 983f
00000020: 211b fcc7 3426 80bf 9671 0dd1 8acc a43f
00000030: 77f4 3915 3478 963f 0b89 bab7 edc5 953f
00000040: ccaa 7297 612d a03f 1f93 cef2 e1f0 abbf
00000050: 2e5d 3971 fceb 31bf 5034 9e35 cae7 a33f
00000060: 538f 7a36 6f38 863f 9bc3 8a1a 047f a0bf
00000070: 4d2f 67be 56e6 a33f 86ce c0df a150 8b3f
00000080: 6634 5e29 24b8 b0bf 80fc aab3 7ce8 ac3f
00000090: e9db 8dd6 03af a13f 4cc7 a86f 5d28 aabf
000000a0: feac 3d45 3253 93bf ef5b 18b3 2742 adbf
000000b0: 558d 280c e125 a23f af46 c8d6 a73d 9b3f
000000c0: c765 b174 fff7 a0bf 386a 9cb5 4538 a1bf
000000d0: 44a0 f958 126c 9bbf 4f62 edb7 24d7 523f
000000e0: 204f 6693 5093 a3bf 5c6c 923a 685e a93f
000000f0: 2599 c1d3 f6ce a83f a2d2 ba5b 4343 a8bf
00000100: 023d ccba b912 aebf eefd c847 0c90 893f
00000110: e3d1 967e 6b5a 9e3f 2bfb db28 5412 6fbf
00000120: a399 5aca 30f3 a93f 2d7f 407e 4f73 a13f
00000130: 8df6 c72f 83de 8cbf e730 c62c 9702 ac3f
00000140: b1d2 0dc5 540a adbf 4e1f b383 48c8 963f
00000150: 63a7 1307 047c 9dbf 91a3 1913 1df2 a53f
00000160: 3a30 2fa1 aa51 8fbf ebfb 64ca 48ee 9dbf
00000170: cb4e 5254 2288 87bf 9bb5 ec00 38d8 a93f
00000180: a598 b2d8 0d4a a63f e686 37fd 46e7 a5bf
00000190: b438 9bfd 053e af3f ef98 71e0 fb6a 733f
000001a0: 9076 00f4 052e adbf 62ea dd32 2c17 9f3f
000001b0: 9932 62ce 13d7 9dbf 9084 87c4 9459 acbf
000001c0: 4514 e797 9e07 7c3f d948 6730 d8dc abbf
000001d0: 35c2 7b0a 618b 7a3f 47f0 e934 69be 99bf
000001e0: 417f f678 2f73 933f cfe4 f759 39c6 98bf
000001f0: 1190 8cb0 041d aabf 84a9 ad96 8dcb 77bf
00000200: f182 7cb2 a45f a0bf 72c0 8493 a986 ad3f
00000210: 20b8 13e0 4844 ac3f d736 242e d92f 923f
00000220: 5548 3264 afbc 6ebf e464 3d1e 5473 a0bf
00000230: 9ada d212 6b9c 703f 58fa 7403 f8ec 6bbf
00000240: 418d 3232 733b 963f 4d73 eb1a 00b8 95bf
00000250: 89b2 1333 e12d 873f 10a0 9fbc f928 983f
00000260: fe1c 3494 d1b3 65bf c515 b88f 2954 9cbf
00000270: 2c41 d999 fe83 aabf 8e0f 9060 3fcb ac3f
00000280: e130 0380 35cf aa3f 6418 923b d6aa a83f
00000290: 2c56 8d66 d66c 90bf d09c 84e6 9931 a13f
000002a0: a0af 445c 8cd7 823f 7576 b7ad be14 adbf
000002b0: 4f36 b9eb ba1a 6c3f 35ab 2854 3a61 a23f
000002c0: ed3f e5f1 57f9 a2bf 5115 0e3a 9a5f 973f
000002d0: 2a3f 325c 4bf8 92bf 709e b805 c80a 96bf
000002e0: 48e3 f6a9 0000 a53f e37e 1d4a ada4 813f
000002f0: ebdb abf0 f11c 9c3f 1c67 c20e ef42 99bf
00000300: 975f 5959 659b aabf 2ba2 06f9 29c5 953f
00000310: 757a 636a 4aea 973f 83ff 7abc 1d8e 85bf
00000320: 407d bcbe eab9 98bf 9234 5c5e d2c9 803f
00000330: 518c aae8 bba8 af3f c966 d51a 5b65 813f
00000340: b25b 9188 33e6 a7bf 5f9d 5931 4abf ad3f
00000350: 4109 8a11 4973 993f 4f4d 4553 a7a9 993f
00000360: a762 e53f a142 a53f 8c0d 9313 cef1 97bf
00000370: b9a9 baad 0c0c a43f 38f6 4aa4 f953 75bf
00000380: 05de 73a3 aa30 acbf da28 2d91 a5f8 8cbf
00000390: e0da d879 fa86 98bf 82b9 4e8c 965e a33f
000003a0: e4e1 4df9 d82c 98bf 645b 6228 f776 933f
000003b0: b15c f2b4 9cbe 963f 03a9 069c 91e0 a83f
000003c0: c9c7 8725 e808 9d3f f453 f605 8580 813f
000003d0: acc2 a361 dd50 84bf e30c ef27 3c77 8f3f
000003e0: 1140 4c8e 56b9 973f 532d dd82 3bf0 a2bf
000003f0: 25f8 31e3 471b 9cbf e045 103c 2dee 7dbf
00000400: 896b 9b8e f1ef 63bf 3c04 4c56 32bb a6bf
00000410: a604 8019 bcbc a5bf 5c58 f6c9 e176 abbf
00000420: c36c 1ffb 8416 a93f aa7a 6601 cf9b 993f
00000430: 9e04 19c5 6a37 923f f091 83d3 c5b6 abbf
00000440: 9b11 e940 0f04 80bf bedf bbc6 e9d2 82bf
00000450: 89e2 012a 7865 ab3f 06d4 5485 38f6 a5bf
00000460: 5690 64e1 d76c 33bf 2986 d95d 35a6 a43f
00000470: 17f9 51a7 36ec a3bf e042 30c7 1d4f 703f
00000480: 5adc 757d 871e 9e3f c494 34c9 5abf aabf
00000490: ca1f 26ff 1974 8fbf 64e3 f48c 2502 44bf
000004a0: b3b7 1c30 03ac 83bf e136 6200 ca63 ae3f
000004b0: f795 0ced 34be a8bf 0367 0d7c 6bcf a2bf
000004c0: f0e7 72f2 a754 9ebf 5bba 7c01 76c1 9c3f
000004d0: d2da e219 a35d 9fbf 896b 2c7f 0994 94bf
000004e0: c201 a7dd 7d23 993f 8a9e cc99 c5f0 a63f
000004f0: 5f81 1461 63ad 613f 5957 12bf e4dd 9b3f
00000500: 3edd 1169 f032 a93f 38c2 7cde 4b0f 913f
00000510: 13fd 6e9b a1c2 b0bf f743 6b77 f455 a6bf
00000520: 6047 3b28 086c 94bf 4105 5473 cb28 98bf
00000530: d32c 9ef1 41af 93bf 1545 4d25 0837 993f
00000540: 908a a04a 566e afbf a530 80d7 a717 aa3f
00000550: 971f 4c73 bc0d a1bf e909 8d49 1cb8 80bf
00000560: b64d 1d57 5272 ac3f d5ca cc5f 8ac5 9e3f
00000570: 724a ec8b 8d47 97bf fd91 4186 509b a63f
00000580: 61ff 3075 ea62 91bf 66b3 02a8 e701 913f
00000590: 3625 7e73 5507 82bf d6cf 6602 78a6 aa3f
000005a0: bbbb e1a3 00a0 a1bf c8d6 5cc4 af6a 913f
000005b0: d371 9684 18ef 8b3f a0da b733 e9e1 ae3f
000005c0: 0ced b7f6 9151 943f c0db c242 1656 a4bf
000005d0: a38e 7f5e bd5f 9e3f 0fc7 1ba8 303d 92bf
000005e0: d3d8 2bd8 fd76 69bf 2128 dad6 8bc4 84bf
000005f0: 30c1 3250 1b8b 30bf 3fed 381f f8f8 87bf
00000600: b2bf a512 d228 aabf f187 e346 27d5 7c3f
00000610: 04da d29f 11e2 983f fe4e b45a 8ca4 a5bf
00000620: 9d4b 379d aaae a63f bbb6 fa01 d9f4 abbf
00000630: f1b4 69ff e2ae 90bf d1c3 b9f9 1334 b1bf
00000640: 352e 3900 756f 9b3f eb07 5dff 6dde 933f
00000650: 852d 3594 dc41 aabf acdf bd88 4371 a0bf
00000660: 08f2 4b7c 4541 92bf 38f2 54e1 31c0 863f
00000670: 5ad4 4047 db88 9e3f cfb3 08b5 132b 97bf
00000680: a4b9 03dd 4a3f a53f e03b 8d5c e9fc 4a3f
00000690: 30a2 3ead cf3f ac3f b57d a5d2 94d6 a23f
000006a0: eca3 7f0f bcae a03f 1664 e9d8 a35c 993f
000006b0: e404 55de 410d b0bf 9cbe fe53 cc89 a33f
000006c0: be13 997c 1cfb 9abf bc4d 29bb 3e20 9c3f
000006d0: 8749 3116 bd47 a3bf 2bc2 a171 f63f ae3f
000006e0: 99da 6f0f a660 9fbf 2792 b20e 13de 943f
000006f0: 278a 9a35 9aaf a93f a0cf c389 4bd7 95bf
00000700: ee0f db40 844b aabf f2b3 7da7 0526 9d3f
00000710: 9385 9baa 6995 90bf db88 ae86 5b21 aebf
00000720: 4de9 8747 e064 83bf 03a0 b1b4 73e2 8e3f
00000730: cf22 0425 aecc 953f 2c50 47c5 477d 94bf
00000740: f0f9 2028 0bac 7cbf a638 f160 7f6e 9bbf
00000750: 0ee5 606c d89f a33f e322 f632 bd8e af3f
00000760: be0f fc4d 7bd2 37bf 0ce3 dd7e 75f6 9a3f
00000770: 030f 6505 2273 91bf 1ebc b1d0 a45a 9c3f
00000780: 817c 64e6 6f61 ad3f 12be a9cf 3c4c a2bf
00000790: 7a42 b7f0 3801 ac3f ff5d 6064 7642 8f3f
000007a0: 2707 c072 c2c8 973f b8e5 6a99 09ad a2bf
000007b0: 83ee 9896 d553 913f 9220 61b3 7d07 8c3f
000007c0: db74 5385 a735 ab3f 8b86 56b4 40ed 72bf
000007d0: 5782 2c67 4bb5 aebf e071 9bd1 dd57 9bbf
000007e0: eacc ece9 0333 943f 69a1 ec2e 9d68 a0bf
000007f0: 57b9 6401 18ae 58bf a1bc b819 2468 a4bf
0.018153359251745424 -0.027171533913143014 -0.0439194670000468 0.02388724526420731 -0.007885372498561307 0.04062303354178025 0.021942914767795387 0.021262850130946236
0.031596231210036047 -0.05457216347648441 -0.0002734652818836167 0.03887779144779613 0.010849827623424046 -0.03221905540465927 0.03886672090774699 0.013337387696174884
-0.06530977258644696 0.05646123593532426 0.0345383834273248 -0.051089210396084356 -0.018872056461458613 -0.05714534817905547 0.035445244535618294 0.026602385029099448
-0.03314207362627602 -0.03363244859629727 -0.02677944820462154 0.0011499270037430736 -0.03823329734146186 0.049548394346140084 0.04845401129641606 -0.04738817686794518
-0.058736614277330915 0.01248178094931426 0.029641799546611735 -0.003792919515830736 0.050683521939663544 0.03408287445222267 -0.014096283813155775 0.054707264152144046
-0.056719445280497445 0.02224839500266223 -0.02879339497750467 0.042862804967462094 -0.015292485279040691 -0.029229295113733327 -0.011490123937881866 0.05047774325644668
0.043533737852429234 -0.04278013077761304 0.061020075996212425 0.004740699666490252 -0.056991754565598574 0.030361834149042706 -0.029140767547277766 -0.05537094973602408
0.006843204026556531 -0.05441928473341457 0.006480578485693435 -0.025140422682383947 0.018994085081089244 -0.02419366466162814 -0.051002642203712985 -0.005809357719821388
-0.03197970083988889 0.05766801763309183 0.055208470681336275 0.017760652009250002 -0.0037520814526681803 -0.03212988728655278 0.004055422073341442 -0.0034088939679855317
0.021711158694086356 -0.021209718363809405 0.011317977305645559 0.023593809259097098 -0.002649220784977423 -0.02766480388347305 -0.05178828838382041 0.05623815587753632
0.05236212909366756 0.048178381702243894 -0.01604018212250062 0.03358155192318579 0.009200188222699357 -0.056798895555158525 0.0034307146832251233 0.03589803960161079
-0.03705859020067224 0.022825631898304725 -0.018525292875494127 -0.0215255025379108 0.04101564478646097 0.008614877533261239 0.02745416671220006 -0.024669394756165905
-0.051966826588510866 0.021259933304152916 0.02335468553871541 -0.010524971308200076 -0.024146716968173054 0.008197444443363264 0.061834213401447465 0.008494102245708917
-0.04667817155921429 0.05810005047242827 0.024853841491230048 0.0250612396788033 0.04152397065144458 -0.023383350319603077 0.039154430586978824 -0.005207038081321218
-0.0550587963606937 -0.014146131031925458 -0.023952401816326296 0.03783102476824053 -0.023608579841921343 0.01900850471482886 0.02221150259410071 0.04858832387556513
0.028354289332078318 0.008545912975742788 -0.00991986231062588 0.015364141434366768 0.023167946276828447 -0.03698907825909239 -0.027447818033117372 -0.007307221124408042
-0.0024337499533947965 -0.04439694693974913 -0.04245555697708285 -0.053641372588729225 0.04899993482077882 0.025008425198047725 0.017789524345293566 -0.05412882048566192
-0.007820243042382205 -0.009191347482086939 0.053508525016643445 -0.04289414050655442 -0.0002964045574052101 0.04033056994081747 -0.03891154091341969 0.003981701202989213
0.029413334877485965 -0.05224116998787445 -0.015358164881732157 -0.0006106074669452841 -0.009605431466834213 0.05935508017237879 -0.04832616227785629 -0.03673873795805884
-0.029619812176612415 0.028081744995854013 -0.030630634741750047 -0.020095966708236133 0.024549452451312133 0.0448056936496047 0.0021578732490896003 0.027213644182288863
0.04921675951566805 0.016659913496541473 -0.06546983761562712 -0.04362453420402084 -0.019943358855761928 -0.02359311953933241 -0.019223242160973108 0.02462399223015151
-0.06138868008590237 0.05096172814964576 -0.03330792338789406 -0.008163662905308082 0.055559704908457005 0.030050432297865044 -0.022733890214178883 0.044153705967605796
-0.016978896525187696 0.016608829145002522 -0.008803050601061995 0.05205130605045809 -0.03442384720334909 0.017008539543175855 0.013639632745985708 0.06031731373143612
0.01984241550779324 -0.03971929135280261 0.02966209306022328 -0.017811546574143352 -0.0031084974192437747 -0.010140507215755492 -0.0002524320299910508 -0.011705339863616103
-0.05109268643980104 0.007039216447283878 0.02429988420473174 -0.04227102858763308 0.044301349345594355 -0.054602414600009884 -0.016292139853637037 -0.0672008976632832
0.026792362345345395 0.019403189383645197 -0.05128373440910664 -0.032114134256459564 -0.017827115737405946 0.011108770073968363 0.0298189413299109 -0.022625263142049875
0.04149850795680557 0.0008236064396472918 0.05517434110453612 0.036793375695875076 0.03258311928932031 0.024767456163633815 -0.06270229032545022 0.03816069150286447
-0.026348538498740963 0.027466755078717972 -0.037656697234200336 0.059081746455266725 -0.030642122928805724 0.02037839677054101 0.05016786484090501 -0.021329098018170733
-0.05135739604659749 0.028465355251160625 -0.01619496444516739 -0.0588482477098908 -0.009469749625158253 0.015080360366667383 0.021288605698859094 -0.020009156623771826
-0.007000011044566254 -0.026788702289473186 0.03832889864902188 0.061635887595064685 -0.0003634978329360958 0.026330791347819946 -0.017040759639043845 0.027689528691947733
0.0573840111485362 -0.035737896298879815 0.05469682634759905 0.015263485849614787 0.02322677445773205 -0.03647642133496326 0.01692136508630294 0.013686162983632042
0.053143725419184405 -0.0046207931058305325 -0.05997691759535389 -0.026702371519478407 0.019725857880257637 -0.03204814145857677 -0.0015063509395748154 -0.03985703290924759
