dataset/mac_superiority_model.pt (torch, 568084 bytes, 6 tensors)

hidden1.weight f8 [256, 12]
000000 35 4e aa 94 42 30 ac 3f 88 02 29 db b6 6b d1 bf
       0.05505569519769119 -0.2721993580089834
000010 7a f7 d8 2d 40 21 c0 bf 18 66 0b dd 3c f8 d3 bf
       -0.12601473082207432 -0.3120262297285037
000020 0e 6e 0c 9b 28 9f b2 bf 31 78 37 7e 54 7c c8 bf
       -0.07274106774678321 -0.1912942520420429
000030 25 2b 94 c6 a1 56 76 bf b3 a8 e1 0e 75 3b c8 3f
       -0.005453712402650611 0.18931449152598176
000040 dc 8f e2 4d ff 7e a9 3f 95 7d 5b 51 1e db ca 3f
       0.04979703737015459 0.20981196377304615
000050 28 68 0c e3 b3 3f d0 bf d1 e4 c6 94 50 c4 72 bf
       -0.2538881032247695 -0.00458175160422876
000060 62 3e 39 0f b9 31 b5 bf c9 d6 7e e3 a4 b9 d3 3f
       -0.08278996106786843 0.3082058164248847
000070 ba 42 c0 37 a7 a9 c1 3f ba f4 5d 5b 01 b3 a9 3f
       0.13798990461557087 0.05019382705993665
000080 d7 a3 ba 12 76 76 be 3f cf cd b3 9e 38 42 b2 bf
       0.11899507481815817 -0.07132295488900485
000090 12 1a 4f 87 23 77 c7 bf 79 16 64 5d 29 25 be bf
       -0.18332332713016847 -0.11775454073002746
0000a0 dd 78 c0 e2 11 65 c5 3f 3e aa 45 29 6e dc be bf
       0.16714690753810305 -0.12055099971409164
0000b0 b1 63 20 8f 2f 40 cf bf c2 10 79 80 bf 15 c1 bf
       -0.24414629448508898 -0.13347619793979076
0000c0 f6 a0 c7 9d 24 d2 d2 bf b4 ba 37 d8 38 b2 c0 bf
       -0.29407611282523705 -0.13043890531067392
0000d0 bc 53 20 08 50 0e d3 bf 4f a1 f1 45 43 f1 af 3f
       -0.297748573242014 0.062387563980169085
0000e0 a8 4d f6 82 ca ee c1 3f 0b e5 b3 ca 1d 73 c4 bf
       0.14009982485422978 -0.15976307294457856
0000f0 39 ea 0c b4 a9 4d c1 bf 2c a5 a8 80 d1 b1 c9 bf
       -0.13518258372808292 -0.20073908598104973
000100 b6 44 40 53 17 9b ba bf 55 e6 cb 59 b1 a2 a8 3f
       -0.10392900259491253 0.04811624737881163
000110 7e 4b 9b 8e 2f b3 a8 bf cd 1b 37 d8 8f 07 ba 3f
       -0.04824207893184161 0.10167788532918039
000120 d6 98 a6 7a 87 44 b4 3f f0 79 01 94 ea d4 c4 3f
       0.0791706728401523 0.1627476904568108
000130 ad 9f ba f0 d3 00 cc bf 0d e1 99 cd af e7 cf 3f
       -0.21877526525827076 0.24925801791301475
000140 7c 04 05 76 a0 f3 c2 3f e6 47 63 27 19 24 cd bf
       0.14805989992786184 -0.2276641313861198
000150 06 fd 63 ab 93 fb cc bf 24 d6 41 14 65 de b8 bf
       -0.22642751568489689 -0.09714347595748812
000160 93 a4 85 9e 1a c0 b3 3f 5d 1f d4 59 43 1b d1 bf
       0.07715002412955334 -0.26728900692295615
000170 e5 37 3c 30 c5 ab c6 bf b6 6d a6 1f 21 82 ce 3f
       -0.1771170125506948 0.23834623380103687
000180 9f 43 2a 6f 9e 59 d0 bf d1 ee 2b 04 3a 9f bf 3f
       -0.2554699025723099 0.12352335550161377
000190 50 db c1 87 df ec c3 bf e6 b4 4f 36 13 95 cd 3f
       -0.15566629532596687 0.2311119094078215
0001a0 01 34 50 54 6a 7a c8 3f a9 95 9b 3a 26 8e d1 3f
       0.19123581997737918 0.2743011066762287
0001b0 71 63 ee 3b 1c 6f 77 bf 4d 95 ba 73 9a aa aa 3f
       -0.005721197404363263 0.052082850100570434
0001c0 ff a1 98 a3 98 f7 cf bf 61 fb 47 d9 55 5b a0 3f
       -0.249743537789314 0.03194683339460514
0001d0 de 2a 98 d7 0f 8e d4 bf fd 60 f9 78 33 41 b2 3f
       -0.321170769254122 0.07130738929243204
0001e0 16 4b 24 f0 37 01 d2 bf 65 9f 57 42 bf b7 c2 bf
       -0.28132437182755277 -0.1462325166642088
0001f0 5b 13 4e b8 95 4f ce 3f bb af bd d8 f7 4a d8 3f
       0.23680373667971363 0.3795756928072895
000200 6a f8 9c 6f 3b 94 b8 bf b6 22 f0 59 60 48 8b bf
       -0.09601184344225691 -0.013321640724840971
000210 e3 ee 67 aa a6 08 c8 bf 1f 8e 2d a5 70 61 ac 3f
       -0.18776400871853757 0.05543090835888286
000220 61 d3 93 98 bb 81 c1 bf bb 97 e6 6a 2f 2c db bf
       -0.13677163076468005 -0.42457185210730203
000230 c6 de d8 49 22 ec b1 bf 36 b6 d3 1f 4e 12 da 3f
       -0.07000936797055166 0.40736725910287264
000240 70 23 d3 62 36 19 c6 3f 1e 3c ad ba 59 39 cc 3f
       0.17264442277362546 0.22050019850800678
000250 f5 9c 30 55 a7 3a a6 bf b2 6b e3 39 b9 78 ca 3f
       -0.043416241788060285 0.2068091900499361
000260 75 cb 1a 02 86 83 c0 bf 61 f4 7c f2 19 98 ad 3f
       -0.12901377775923675 0.05780106625614035
000270 91 77 47 7b d4 86 c0 3f 47 d2 e0 29 35 50 c4 bf
       0.12911468524447092 -0.1586977438434067
000280 a7 fe cd 4d 53 a9 bb 3f 33 35 a9 aa 9e f3 da bf
       0.10805245065238954 -0.42111937204466016
000290 68 83 d3 9a 52 2c cf 3f 3e 9a 55 97 8f d3 d6 3f
       0.24354012069582187 0.3566626527666904
0002a0 5c 9f cc d4 cc c6 ce 3f 50 87 50 e1 47 99 83 bf
       0.24044189825621742 -0.009569703639559585
0002b0 e5 9e e7 4d 37 04 a8 3f 5e 29 7e 78 da e8 c7 3f
       0.046907165775164995 0.18679362185896314
0002c0 aa 2e 15 a5 fb de d3 3f f0 6b a7 8e af 24 c4 3f
       0.31048480149614 0.15736956086661236
0002d0 c8 e2 e4 ba dc 62 ca bf d4 f1 06 0d 8b 4c d5 3f
       -0.20614203572929157 0.33279682418995304
0002e0 4f b4 26 de 48 1b cb 3f 7d d2 4b f8 45 f2 9b 3f
       0.2117701611254312 0.02729138687114351
0002f0 f9 6c 41 15 59 03 d5 3f e8 3a 81 8f 85 1e d2 bf
       0.3283293445180813 -0.28311289800778505
000300 34 fc 2b 20 3a 3c 8e bf 4b 3b 1d 09 50 bb c8 bf
       -0.014763311487966481 -0.19321632809666264
000310 88 0c cc 32 27 a7 c2 bf 3f fc 80 e9 39 24 d4 3f
       -0.14572610836339472 0.3147110729514146
000320 f7 ae de be 82 5c a0 3f b0 08 c4 ce aa d5 a4 bf
       0.03195580081896126 -0.04069265150066437
000330 11 f8 67 55 3f bf c4 3f 06 28 fc 03 2b ab cc bf
       0.16208640737744465 -0.22397363371447926
000340 9d 21 36 a4 53 88 c9 3f 0e fc 49 4d 88 59 c3 bf
       0.1994728614629481 -0.1511698129070002
000350 6e 11 5e ef bd c9 97 bf cf ea 9b 57 db e2 d7 bf
       -0.023230521902875827 -0.3732212405736108
000360 a9 9f 39 4f e3 37 b1 3f 2e 11 9f 4a 5f 50 be 3f
       0.06725903209883079 0.11841388294039198
000370 b2 18 6a cd 6e e8 c9 3f 9f fd 1b 1c dc aa b7 3f
       0.20240578680040283 0.09245086370719101
000380 1c 66 00 90 f8 55 c7 bf 3f 86 65 6b c9 7a c3 3f
       -0.1823111251003845 0.15218465560887925
000390 6a a2 cc 04 b9 9a c3 3f 0e 19 b3 5f 50 e5 c2 3f
       0.1531592629846899 0.14762310669738848
0003a0 47 a3 1b fa 0b f0 b9 3f 79 13 03 79 a3 d6 b2 3f
       0.10131907325888988 0.07358762459177894
0003b0 4d cd a6 10 f8 21 d2 3f 6d b9 c5 34 8d ad bb bf
       0.28332330347185036 -0.10811693704974852
0003c0 b0 c3 1f 7a d2 a4 bf 3f fa a8 f2 02 d7 1b 67 bf
       0.12360873681588092 -0.002820892280927298
0003d0 66 f0 a2 bf 88 29 c8 3f 40 bc 91 b8 d5 ba c7 3f
       0.1887675224041942 0.18538924705669224
0003e0 21 bf 07 b2 46 ca ce bf 75 74 ae e5 33 e2 ce 3f
       -0.24054797833331867 0.24127815928378352
0003f0 25 37 82 6f 60 50 c2 bf 01 66 d1 70 82 1b d3 3f
       -0.14307790226706021 0.2985540487039487
000400 74 69 33 cd a1 e8 a2 bf de c8 6c b1 14 30 bf bf
       -0.03693109159367483 -0.12182740527785849
000410 8b 5d b1 5c cc 5c 90 bf c7 4f 2d 5b c3 7e a7 3f
       -0.015978997380754072 0.04588900077820273
000420 cd ba 8d b4 49 8e bf 3f d1 70 f5 e8 83 cf 9d bf
       0.12326489122436186 -0.029111920446084853
000430 64 ca 0a 99 42 bf c8 bf 1e 2f fe 48 05 e9 b1 bf
       -0.19333679650079028 -0.06996186286977177
000440 32 16 59 0c 0e 4a ad bf 1a 40 c5 4b 8b 1f c4 bf
       -0.05720561886532173 -0.1572126502965155
000450 73 f9 2d 23 84 21 b1 bf db 5a 46 ed a8 88 6a bf
       -0.06691766604305886 -0.003238992629302257
000460 80 e8 e2 34 94 b0 c6 3f a0 e0 cb 51 cb c5 c0 3f
       0.17726376135198407 0.13103620046581899
000470 0e dd 8b 4b 31 86 d5 3f b6 fa fa 67 ff 73 d3 3f
       0.3363154638058895 0.3039549365457036
000480 69 5a a8 f0 7e 71 cc bf 02 57 85 d6 50 a5 c1 bf
       -0.22221361876354997 -0.13785753702784836
000490 6f 2b a4 c8 5f ae c1 bf c5 1c df b3 ee c0 c4 3f
       -0.13813397690713766 0.16213783057012257
0004a0 02 2d 42 a8 50 8f d1 bf e9 ae 66 6e df a5 cc 3f
       -0.27437225753301686 0.22381203547171616
0004b0 ba fa 2d 32 cd 22 d1 3f be f8 05 6a 52 0d b5 bf
       0.26774911785461664 -0.08223452652416349
0004c0 62 fd 24 09 dc d2 6b 3f 1b 3c f7 69 f7 f4 d3 bf
       0.0033964440891904183 -0.31182656620234334
0004d0 b3 24 6c 6b e5 04 c2 3f ac 19 60 0c 09 d8 a9 bf
       0.1407744192622765 -0.0504763438803367
0004e0 46 05 a2 cc f2 9e b8 bf 46 86 c9 6b b6 a1 ce 3f
       -0.09617536064071883 0.23931007636115192
0004f0 f0 24 b6 74 b1 a3 d5 3f 0c 88 a6 60 77 42 d5 bf
       0.3381160392533067 -0.3321817821362181
000500 f8 15 05 b5 19 d4 a1 3f b1 1c 94 86 43 2d be 3f
       0.034821322772170704 0.11787817035302585
000510 d7 55 64 ec 63 10 be 3f e5 42 cf de af 93 d9 bf
       0.1174375965241191 -0.3996390987277166
000520 f1 54 63 67 fd 15 d1 bf 8f 73 dd 4e 2c bb d0 3f
       -0.2669671544693549 0.2614241380850268
000530 54 8e 52 9d 66 38 9f bf 33 dc c1 55 25 bd d2 bf
       -0.03048858962269059 -0.29279454588635473
000540 4a 70 9a ed 12 26 be bf 95 21 f7 a4 5b f4 af 3f
       -0.11776846218930462 0.06241117848145731
000550 e2 b5 24 e2 0c 6c 82 bf c5 e7 22 72 ce 04 c9 3f
       -0.008995152140950095 0.19545918057502668
000560 91 2c 2a 9a 08 b7 cb 3f 16 27 4d 74 b0 9c d2 bf
       0.21652324225974387 -0.29081355435902034
000570 84 70 9f db 2d fa d1 bf 0d c6 17 48 2f 77 b9 bf
       -0.280894722438241 -0.09947486410217028
000580 fa 93 69 32 26 f6 d1 3f e2 bf 95 c7 58 03 d2 bf
       0.28064875529372524 -0.28145427218168895
000590 c7 1d 3b 9a 59 73 c0 3f 36 56 9b 03 29 73 b4 3f
       0.12852020293051522 0.07988220537239318
0005a0 cb 23 a6 fc 54 4f c9 bf 8f 48 98 07 bd b1 be bf
       -0.19773351990104823 -0.11989957271024053
0005b0 a7 6b 26 83 9b 70 d8 3f 40 11 de 09 62 af d7 bf
       0.38187301452279104 -0.37007952655428156
0005c0 af ef 9e 91 87 39 b6 bf 66 57 da 78 b9 72 cc bf
       -0.0868153315086022 -0.22225111390133206
0005d0 55 03 21 ee 55 e8 cc bf 02 c9 c4 a4 c7 f7 ce bf
       -0.22584032180204852 -0.2419366411718969
0005e0 95 31 13 aa 85 bb d4 3f 32 42 db d1 43 2f a6 bf
       0.3239454422844344 -0.043329352729078244
0005f0 7e dc c8 00 f1 d4 d1 3f ae ba c0 91 e6 d7 a4 3f
       0.2786219127332926 0.040709691326232686
000600 c7 1d 14 1f 3a 17 a6 3f 92 a1 41 76 a2 c3 b9 3f
       0.043145958226940055 0.10064139735334823
000610 8e a9 c7 fa 5a a7 d2 3f 45 be e4 84 c6 46 c6 3f
       0.2914645623228801 0.1740348957914525
000620 2b 37 09 62 2b 3d cb 3f 80 30 78 4b 78 6c cc 3f
       0.21280424391664474 0.22206023869546598
000630 fd cc fc 96 5a 26 c1 bf 31 05 60 98 e6 fa c5 3f
       -0.13398296711384453 0.17171938362302222
000640 a8 67 3f 15 83 d6 c8 3f 80 87 1b 23 bc c1 ba 3f
       0.19404638802990104 0.10451866013639055
000650 9c 92 91 03 55 a3 a6 bf 40 ee 3f 58 c6 37 c8 bf
       -0.044214874921441466 -0.18920211133068854
000660 a3 42 81 23 56 27 96 bf 82 ef 0d 7e 01 02 d3 3f
       -0.021634431759880567 0.29699742612842084
000670 9a 93 51 d0 2c 81 c6 3f 52 d5 9e aa 1b 3e a4 bf
       0.1758171097927999 -0.03953634698647569
000680 8f e3 03 57 ec 12 d4 bf 65 b8 f5 0e ad ea bb 3f
       -0.3136549806363797 0.10904962172728146
000690 b1 cb da e8 da 92 d6 bf 8b cf 2f 04 56 27 b0 bf
       -0.35271332492555546 -0.06310021974769435
0006a0 56 6e c7 d0 c2 9b a6 3f f1 5b bc 4a 55 8d cf bf
       0.04415711210796462 -0.24650064610679537
0006b0 b9 aa b6 38 92 fd c0 3f b3 29 c5 86 26 72 da 3f
       0.13273837823120063 0.41321719323300526
0006c0 2b af df 33 46 e0 be bf 4f 20 47 68 25 4e a6 bf
       -0.12060965315293674 -0.04356495759890377
0006d0 7f 3f 91 de ec e7 d2 bf c8 39 fc f0 e7 08 b6 bf
       -0.2954055951604388 -0.08607339509419554
0006e0 cb 8e 35 4b 51 ae d4 3f 0e e8 44 50 9f cc b9 bf
       0.3231394991364424 -0.10077853879639084
0006f0 0c a9 b3 e6 54 82 c4 3f 55 a1 6d d8 2a cd cf 3f
       0.1602274061654686 0.24844871108804037
000700 5b 63 86 80 49 09 7a bf c3 d5 fd 6a 7c 0e d3 3f
       -0.006356513135323673 0.2977591557349479
000710 d1 f3 da 8d 9a 77 82 3f 3a 15 56 7a d3 9c a5 bf
       0.009017188505248715 -0.042212113078714045
000720 69 c0 6e 28 1a 74 ba 3f e7 c7 aa 2a eb b6 a6 bf
       0.1033340786659679 -0.04436430831755427
000730 44 1d 85 cd c4 3e d3 3f e4 9d c7 4f 21 fd be 3f
       0.3007061011343988 0.12104995916126132
000740 e6 f5 e3 ca ba 3d d2 bf 3a 9e 75 ae c8 03 b8 bf
       -0.2850176793434386 -0.09380773791564759
000750 68 10 96 d4 cd 5c d2 bf 40 e7 96 0c 98 c1 b3 3f
       -0.2869143081700316 0.07717275912628185
000760 86 13 19 77 da 04 d1 3f 6f a8 7e a7 5d 44 ca bf
       0.26592122679385743 -0.20521135977225266
000770 50 3d 9a 90 b9 e2 8e 3f 72 fb 3c f7 4b 86 cd bf
       0.015080880856912643 -0.23066091129473026
000780 0e b2 f9 31 50 42 c1 3f 66 bb 7c 6d b0 a0 c9 3f
       0.13483622017101066 0.20021634431892749
000790 28 d1 c2 35 88 f6 cb bf 21 5c 65 61 a4 bb c2 bf
       -0.21846106171654722 -0.14635138278637874
0007a0 22 93 39 7d 22 30 c4 3f 12 32 4a 48 fa 43 b6 3f
       0.15771895517823348 0.08697475685966818
0007b0 5f 7f 99 5d f6 a4 ca 3f 30 2b 5c 00 d4 6a e3 bf
       0.20815925188343962 -0.6067905432731546
0007c0 36 c9 a4 28 a8 8d a5 bf 5d a5 24 1e 4b 3d b2 bf
       -0.042096381150616244 -0.07124776349941926
0007d0 91 46 41 be 70 0e c4 3f 14 d4 de 1f d3 98 d6 3f
       0.15669068612856 0.35307767975183535
0007e0 d7 64 fa a1 8b 93 b8 3f 3c 4b f4 01 9f 09 8e bf
       0.09600136475127684 -0.014666788336887053
0007f0 38 b2 9a a0 70 ab cc bf d2 0c da 6e ae 6a ca bf
       -0.22398193208700135 -0.20638065731700422

hidden1.bias f8 [256]
000000 12 b6 bd 6f aa 1d d3 bf c1 33 d6 d3 61 b8 c5 3f
       -0.2986856547566684 0.1696893963202495
000010 bb 1b 36 76 ed 89 92 bf c9 61 24 56 c6 08 bc 3f
       -0.018104276981400363 0.1095088920886901
000020 8e cc 62 42 68 c7 68 bf 02 e5 25 fc 51 19 84 bf
       -0.003024772292599182 -0.009813919551322051
000030 bb 78 2b 06 64 b1 b2 3f 06 24 a4 39 eb 9a c1 3f
       0.0730192675650611 0.13754024805555803
000040 31 3a fb 15 ab 35 b8 3f 4f 7b dc cc 76 63 b5 3f
       0.09456891333250252 0.08354895116324922
000050 70 3a 28 b8 77 7e cb bf d0 ba 46 2e 17 29 c3 3f
       -0.2147969865040582 0.14969148406586053
000060 39 0d 25 6d d2 21 d4 bf 78 10 12 61 d0 0d b2 3f
       -0.3145643297068151 0.07052328462492763
000070 80 99 a2 8a 91 9e cd bf d9 6b 23 1e a8 6a c6 3f
       -0.23140162724775948 0.17512990447616408
000080 28 86 63 7c f1 49 b7 bf d3 4c 88 d4 ec 9f c5 3f
       -0.09097203528246978 0.16894302728233032
000090 64 e2 95 53 d6 6b b5 bf 97 e1 70 8b 66 2c c1 3f
       -0.08367671528493187 0.13416749771728284
0000a0 63 c6 9e d0 24 81 d0 bf 8f 88 66 db 96 f3 d2 bf
       -0.2578823125178131 -0.29611751008827353
0000b0 88 40 ca c8 db e7 d0 bf 5b 5f 19 95 aa 61 cf bf
       -0.26415152176287693 -0.24516804008703272
0000c0 f9 dc 78 fd ac 93 b4 3f 70 82 ac 0e 86 fe c0 bf
       0.08037835300716613 -0.13276744572160082
0000d0 dc d7 e7 61 f8 9b bc bf 62 61 22 09 14 69 b8 bf
       -0.1117549170520244 -0.0953533670712026
0000e0 85 f2 ee d8 68 84 ce 3f 02 b1 0d 40 b1 74 b3 3f
       0.23841581909609402 0.07599933446698873
0000f0 1e 69 ed 5e 61 41 b3 3f 90 03 eb 0d 22 cf a9 3f
       0.07521637504160991 0.05040842456720107
000100 c0 08 49 eb 0d 1d bf 3f 1c 11 71 d2 a8 e5 c1 bf
       0.12153708452482004 -0.13982115054580724
000110 59 e8 a1 08 d1 5a a7 bf ac d4 59 24 cd a6 ca bf
       -0.04561475019814116 -0.20821537280031543
000120 56 fb 39 11 f9 78 b9 bf 53 0d a8 39 51 fa c9 3f
       -0.09950215025490414 0.20295157733208188
000130 72 bf 23 1b 11 7a bd 3f 8d 18 ca bc 8a f5 c6 3f
       0.11514384186352603 0.17936834543451532
000140 7a 6a 2d 9d ea c0 c2 3f 03 24 4f ec 3a af d1 bf
       0.14651234316518807 -0.2763202007013776
000150 08 ab 5b 00 ee 01 ac 3f 38 33 01 2d df e3 a1 bf
       0.05470222238894534 -0.03494164871572142
000160 6e 7b 5d 7f cf 87 bb 3f 05 07 47 6b 25 fc 9f bf
       0.10754105433941927 -0.031235298798271156
000170 e0 55 a9 6b 56 be bd 3f ca 90 4d 63 d8 24 c1 3f
       0.11618557098821425 0.13393692826060138
000180 a4 b3 ed 64 f8 da be 3f 75 c1 ea 1b 4c b7 a6 3f
       0.12052872146678212 0.04436719742568843
000190 c5 5f e9 36 ea 59 8f 3f 7b bc d9 a2 2c 03 ce 3f
       0.0153082178123184 0.2344718737763037
0001a0 71 93 80 4c 76 8f 58 3f 1d 76 93 7d 81 c7 bb 3f
       0.0014990477811888914 0.10851296726055933
0001b0 97 69 dc c0 3b 8c c0 3f b9 d7 5a 89 6f 98 c5 3f
       0.1292795840934786 0.16871446806697835
0001c0 ff 54 c4 84 62 9b c2 bf 1d 74 21 b0 54 d7 ad 3f
       -0.14536696894416676 0.05828346872360888
0001d0 7a 2c 4a dd 93 fe be 3f ee 3a 05 f9 74 ca c4 bf
       0.12107204582768985 -0.1624284950180121
0001e0 4c 7e d6 fe d9 44 c0 bf d6 b3 9f cb a5 4b c6 3f
       -0.12710118239646062 0.17418358271188933
0001f0 cd db 3a 81 8d 9a 60 bf 5b 88 60 49 0e ec bb bf
       -0.002026821495600717 -0.10907067576820977
000200 66 55 72 af 58 9c c8 3f e0 17 36 6e a5 52 cd 3f
       0.19227131430367733 0.22908466226016255
000210 84 3d b4 bc 9b d7 b5 3f 75 9d b6 af 8f a1 8c 3f
       0.08532117230446629 0.013980028676839432
000220 14 0f 59 4e 03 2c b1 bf c1 e2 85 2a 80 3d bc 3f
       -0.06707783377447313 0.11031342542799917
000230 74 79 a2 da 17 dc b6 3f 38 49 54 df 93 52 c0 bf
       0.08929585540542978 -0.1275200691675964
000240 0e e2 2d b7 af 80 b1 3f 1c c0 c4 d0 c0 b1 c4 3f
       0.06836984846257385 0.16167459672715345
000250 4a 56 12 70 93 f8 65 3f ae 7b 7a 94 65 9b a6 3f
       0.0026820068019997355 0.044154333472071414
000260 57 d1 7e d0 de 0a b9 bf 9f 18 08 d7 34 90 c1 bf
       -0.09782211866587907 -0.13721333026496027
000270 0a 0b f0 b2 08 49 b7 3f b2 b3 2e 93 b3 df b7 bf
       0.09095816010089322 -0.09325716346093207
000280 68 d7 ce f7 1b d1 cf bf 47 08 c5 50 2a b1 be bf
       -0.2485690078735232 -0.11989082786479442
000290 26 d7 fc c3 18 c9 c2 bf 99 99 5d 6a 0b dc ae 3f
       -0.1467619854899393 0.060272557005009726
0002a0 ff 47 0e bb 0c 90 9a bf 05 2c 06 8a 26 c8 c7 3f
       -0.025940131108264094 0.1857956098504873
0002b0 4e 75 23 dc e0 e3 7e bf 49 73 8d e1 7f 62 b3 3f
       -0.007541540488287991 0.07572173363355462
0002c0 81 ff ae bf f4 f9 b2 bf b8 90 c3 27 aa f8 ab 3f
       -0.07412652663970044 0.054631535867686265
0002d0 d9 a6 94 dc 71 68 c1 bf 4f b4 3c 7c 5e a1 81 3f
       -0.1359999014905984 0.008608568350235183
0002e0 60 2c c4 a0 b2 2f b7 3f 06 76 54 df 9a d2 c4 3f
       0.09057156014402912 0.1626771536329416
0002f0 86 17 c1 cd 22 fc b5 3f 0a 1c b3 82 4b 45 c8 bf
       0.08587853930757036 -0.189614714449107
000300 aa 7e 58 24 fe fd be bf ff b3 f7 13 fa 80 9c bf
       -0.12106312167497416 -0.027835757702565186
000310 9d e0 bf b4 1f ff 61 3f d9 a9 da 30 89 e6 b0 3f
       0.002196847844967277 0.06601769869545339
000320 b4 c7 d3 0b 6e 7f d0 bf f5 b7 f3 89 5c e3 c1 bf
       -0.257777701902451 -0.13975102172793155
000330 d4 b8 4c de 3e 05 ac 3f 85 67 a0 1f 6c ae bf 3f
       0.05472752059573485 0.12375522396214762
000340 3f e4 b2 20 f7 d9 c0 3f 84 5c f1 6e 16 01 b7 bf
       0.13165177437420714 -0.08986034592213527
000350 de b3 b2 fd 69 79 bf 3f 4d a7 4d 74 79 af bf 3f
       0.12294638103294583 0.12377127732693545
000360 d1 d0 ef 4c c5 fb d2 bf 11 44 7d 02 7b 31 c3 3f
       -0.2966168643317931 0.14994752522991964
000370 56 e2 7f 63 2f 12 74 3f 73 7a 81 9e ad b1 c5 3f
       0.004900155174248319 0.16948480834522037
000380 47 87 f7 88 98 9e ad 3f 78 52 a0 7c 88 af c7 3f
       0.057850615233987095 0.1850443466688778
000390 23 b0 8c 60 45 dd c0 bf 9c 48 5c e0 04 6e d1 bf
       -0.13175265516599763 -0.272340029813799
0003a0 f9 b7 3c 8f 3c 62 af 3f cb ee 36 12 1f 98 bf 3f
       0.061296360478408425 0.1234149379224007
0003b0 b3 e3 61 fd 19 7d c4 3f 6a 24 1a 01 c4 aa c1 3f
       0.16006779548822933 0.1380238538152157
0003c0 bf 29 15 67 aa 70 c5 3f 6e 1b bc 98 0d 13 97 3f
       0.16750078233083163 0.022533619353477467
0003d0 15 d6 a2 05 47 f9 c0 bf 93 11 a6 9e f0 9d cc bf
       -0.13260734343718697 -0.2235699438716777
0003e0 e6 63 53 92 34 d4 a3 bf e2 01 fe 3d 33 ba b2 3f
       -0.03872837339594763 0.07315368903619615
0003f0 44 ba 8d 27 36 8d c5 3f 17 e2 98 07 01 93 bb 3f
       0.16837193423585195 0.10771185336569321
000400 c3 0f e3 15 fb c1 a7 bf fa 53 2c 7e 33 7c b4 bf
       -0.04640183107542797 -0.08002015905761076
000410 56 cd 2e f3 4b e3 ab bf 28 66 c2 b5 b8 75 aa bf
       -0.05446851104297916 -0.05167939394705129
000420 2d 83 9e 15 12 ad c7 bf b2 19 47 82 54 46 9c bf
       -0.18496919685005633 -0.027612038089296305
000430 10 aa 5b 58 b4 f1 b6 3f 36 86 55 af 3d 2a 9f 3f
       0.08962561757258691 0.0304345739617757
000440 09 e3 d7 b1 82 12 b7 bf 51 be 4e 11 dd 93 c0 3f
       -0.09012619821431768 0.12951243729684106
000450 8e 33 47 58 7f 0a b4 bf f8 25 c1 a8 0a 00 b7 3f
       -0.0782851782343654 0.08984438533766326
000460 76 21 21 4f 99 bb c6 bf 84 85 d6 8e 2c 1a c3 3f
       -0.17760006297818237 0.14923626875410545
000470 e3 18 b6 0d bb d5 ca bf 11 52 6c 43 08 0b cf bf
       -0.20964754266260063 -0.24252417843003163
000480 9c 97 a3 29 ce 85 c8 3f c5 db 6b aa 63 d2 d0 bf
       0.19158341439395776 -0.2628411449690556
000490 b8 19 77 21 b6 05 af bf 83 40 9c 2c 33 80 c3 bf
       -0.06059044989119705 -0.15234985044708446
0004a0 cd 96 01 ad b7 5f b8 3f bb 75 d3 0d 25 9c c9 3f
       0.095210532892078 0.2000776593694534
0004b0 d0 b4 03 74 83 c7 b0 bf 5e 02 72 f4 fb e4 c2 bf
       -0.0655443342436286 -0.14761304317291296
0004c0 0c 8f 59 68 7c 4e b3 3f 74 d1 05 95 da 3b c0 bf
       0.07541635081866732 -0.12682659412861208
0004d0 bb be 56 4d 69 bd cb bf cb ab aa 90 41 3d ca bf
       -0.21671787525473526 -0.20499438823512003
0004e0 97 5a fc 13 4c b7 c1 3f 8a 68 3a ca a6 a0 c1 bf
       0.13840628600947433 -0.13771519541188965
0004f0 b6 4d f1 75 ce 46 d2 bf a4 05 b9 87 f7 14 be bf
       -0.2855716850073934 -0.11750742972892297
000500 27 f3 f8 54 9b 56 a0 3f 19 69 a7 d4 1b a1 bd bf
       0.031910757181753895 -0.11573957387682689
000510 04 99 9b f8 e8 dd 96 3f 20 ff 40 9b e2 0a c6 bf
       0.02233089463597883 -0.1722071893764161
000520 13 4f db 23 0d 88 c2 bf 54 b4 57 8d 8d 33 b9 3f
       -0.14477695704282975 0.09844288540598828
000530 bd 28 1c 0d 0e 8c 5d 3f 86 37 89 e1 43 6d c0 3f
       0.0018034112185341532 0.1283345080614106
000540 5c 4b f2 a4 6c 91 7a 3f f6 fc 90 e3 cd d6 ca 3f
       0.006486343757518078 0.209680305591952
000550 d7 e4 90 c3 a1 a8 b0 bf 03 61 55 67 32 a0 b4 3f
       -0.06507311844406459 0.08056941054144677
000560 66 78 80 76 d0 fc bf 3f ff d2 7e c8 1d bd c2 3f
       0.1249513902007223 0.14639637269797132
000570 c5 3f 55 f2 90 14 b1 3f e6 38 52 a9 62 f6 ba 3f
       0.06672006527264703 0.10532204278772248
000580 23 6d de 38 5a 6d c9 bf 56 40 70 5c 00 00 a6 3f
       -0.19864967133330777 0.042968760761255595
000590 69 ad b7 91 3a 47 cf 3f 88 4a b0 00 81 59 c6 bf
       0.24436123004066282 -0.17460644277214876
0005a0 50 11 5a fc b7 91 b1 3f 29 9b 35 41 b4 eb a9 3f
       0.06862974081929463 0.05062640472424668
0005b0 b1 e0 9b 50 a9 2e 97 bf 71 f7 cf d7 aa 4a b2 bf
       -0.02263893656251587 -0.0714518334279697
0005c0 cc 3b a2 44 db eb b0 bf 1e 0f e7 ee 35 53 93 bf
       -0.06609888482692766 -0.018872111040550192
0005d0 5d 49 c9 83 5b 7f c1 bf 93 0d bd 1b d2 7b d0 bf
       -0.1366991418349909 -0.25755741795384174
0005e0 47 db 94 70 e3 90 88 bf 78 ae 8e d9 c9 dd 7a 3f
       -0.011995102761472544 0.006559170223151882
0005f0 ff 63 f9 a7 5e 8b c6 3f 26 95 77 fe d3 b4 c1 3f
       0.17612822725166663 0.1383309357180817
000600 37 aa d9 ac fc 56 a6 3f 7a 76 04 18 d6 02 a1 bf
       0.04363240823734709 -0.03322476428205064
000610 41 00 41 26 56 17 68 bf e6 a6 7b 0a 28 ec cb 3f
       -0.0029408152204553344 0.21814442169061649
000620 6e d1 ca 76 b8 75 c3 3f 2c 2b 3a e3 2f ae bb 3f
       0.1520300464668582 0.10812663362063962
000630 91 97 6e 59 c2 b8 c8 bf 95 98 1c f9 c8 d0 b7 bf
       -0.1931384026221932 -0.09302955705479328
000640 2c 64 c9 b1 9d 1c c4 bf d7 93 92 e7 8d 08 99 bf
       -0.15712329083433596 -0.02444669462115087
000650 b4 12 f3 a4 5f 05 cc bf fc d6 c5 bb 26 ee 84 3f
       -0.21891398958373076 0.010219862561580133
000660 12 c8 f6 8c f4 7b c6 3f df 6c 6a 71 38 ce c1 3f
       0.1756578148174986 0.13910584962727676
000670 d9 7a a6 51 5a a3 bd 3f 49 a4 cb 55 92 e5 b1 3f
       0.11577381604591198 0.0699092349492655
000680 c3 fd 74 73 69 46 a1 3f 26 50 ed 35 49 dd a8 bf
       0.03374032530200168 -0.0485632780388701
000690 00 9a bb 78 a6 2e be bf 51 51 33 fc b2 cf b5 bf
       -0.11789932677820758 -0.08520048768270284
0006a0 0a 78 2a 33 e9 0d c2 3f f2 43 85 82 81 8d 98 bf
       0.14104952810606647 -0.023977302161544096
0006b0 5b 22 48 dd 5f 64 c4 3f a1 d0 db 6b 80 e1 97 3f
       0.15931318573736317 0.02332115801159829
0006c0 79 c1 ac f0 60 e2 cd 3f b0 bd 7a ab 51 48 d2 bf
       0.2334710288209967 -0.2856640028575965
0006d0 04 9b ff 48 10 29 c3 3f b9 05 86 95 09 9e a0 3f
       0.14969066204431425 0.03245572996366825
0006e0 b8 06 47 e7 46 42 8c 3f f3 4e 81 b4 44 f4 c3 3f
       0.013798288281466994 0.15589197934843177
0006f0 64 ba 11 e8 c3 78 97 3f 04 e1 5a 5e 3b 6a cf bf
       0.022921620406516033 -0.24542944056680238
000700 67 4c df 4d 61 ca c8 bf d9 ed 6c 96 13 1a cd bf
       -0.19367615034443306 -0.22735829205508543
000710 b0 8f c2 d0 0d a6 c1 3f 84 3c 6c a6 fb 68 b3 bf
       0.13788006490096683 -0.07582066357666589
000720 ae 89 14 39 7c d9 d0 bf 1d 59 15 e3 ff 5c be bf
       -0.26327424597016147 -0.11860656065013982
000730 2f 77 61 ad 4a ee a3 3f 43 05 47 89 83 82 c8 bf
       0.03892739645446707 -0.19148296549796315
000740 a5 f1 88 fe 94 bc c4 3f 40 c0 c9 0e 35 5c b3 bf
       0.16200506618942004 -0.07562572108304355
000750 74 af 5f a3 f3 48 bd 3f 99 25 34 c0 ee ab 3c bf
       0.11439440477960067 -0.00043749407650802704
000760 b7 0a f6 d4 34 26 98 bf c2 cc 86 4c 93 67 92 3f
       -0.023583245752443385 0.017973233743487034
000770 c8 fd e8 3e d9 18 d3 bf 09 06 46 49 f5 48 ce bf
       -0.2983916391712822 -0.23660150602158606
000780 95 76 40 7a 33 6b c7 3f f8 ec 07 a2 1e cd ca 3f
       0.18295901746107704 0.20938475524585676
000790 84 19 1f a2 c8 37 b3 3f e1 c4 87 f6 db 75 a7 3f
       0.07506994207424184 0.045821069568668944
0007a0 99 cd 8c 82 b0 6e c9 3f e8 fc ea 66 75 77 d1 bf
       0.19869047522079766 -0.27291617441728855
0007b0 c4 d8 fb 80 cd a0 c1 3f dd c8 ff e0 3f 6a ab 3f
       0.13771981046710924 0.05354499455997239
0007c0 27 64 c5 9b 19 df b1 bf 86 56 67 0b d1 68 9b bf
       -0.06981048634533292 -0.02676703102209512
0007d0 a7 09 43 94 49 c7 a6 3f 95 f7 88 b1 76 4f c4 bf
       0.0444891923412059 -0.15867503803923158
0007e0 42 86 a7 f2 8e b7 c9 bf 04 8d 8f 94 63 d8 7f 3f
       -0.20091425751074793 0.007774723992926672
0007f0 ad 77 60 bd d6 ab c7 bf 91 25 4e 24 1c bc a5 bf
       -0.1849316048327955 -0.042450789863390466

hidden2.weight f8 [256, 256]
000000 2f 78 7e 47 c3 6a b8 3f 06 31 7f f4 3d bf a7 bf
       0.09537907119235521 -0.04638093576031292
000010 4a b4 9f 66 eb 27 71 bf 23 64 67 88 22 83 a1 bf
       -0.004188460859933471 -0.034203604842055556
000020 bc d3 c3 43 60 14 a2 3f 45 e4 91 b7 f5 25 bf 3f
       0.03531170680245263 0.12167297107397797
000030 d2 03 bb 9a 12 c8 91 3f c6 c2 55 ef 15 24 91 3f
       0.01736477918052854 0.016739218457078285
000040 b9 e5 2f e6 b8 52 99 bf d0 f2 5d fe 9c b5 9e bf
       -0.024729622888093526 -0.02998967459233165
000050 4c 72 89 74 01 31 8f 3f e2 8a 23 45 34 79 7e 3f
       0.015230189675258597 0.007439808063483185
000060 46 25 ef 5e 33 83 b7 bf 9e 9e 28 7c af bb b0 3f
       -0.0918457133076532 0.06536385327546632
000070 8b 11 66 55 7a a2 af 3f 8f a7 aa 99 e0 d3 94 bf
       0.061786482739111546 -0.020339497927728763
000080 83 4c 19 36 30 0c 83 bf 69 cf fb 63 12 09 b3 3f
       -0.009300591135945396 0.07435717526442222
000090 a8 47 c6 fb dc 6a b1 bf 51 bc 82 b8 b6 53 aa bf
       -0.06803685328330167 -0.0514199352486392
0000a0 df 94 aa c1 63 e9 b0 3f c2 f1 c9 b1 ac aa a2 bf
       0.06606124380285248 -0.03645839376710881
0000b0 dd d2 3d 3a f8 71 ad 3f 79 41 8c f6 ae 8b a6 3f
       0.05751014433818622 0.04403445014588931
0000c0 63 7d d2 29 13 ce a2 3f 12 88 d3 e3 6a cb a9 bf
       0.036728476386310736 -0.0503800776584883
0000d0 d1 f2 0b 70 7f 96 9e 3f 8d a6 05 62 07 e5 9f bf
       0.029870978559290166 -0.031147113187592047
0000e0 0c c7 c3 c9 24 e7 b2 bf 59 ce 94 f7 f3 aa b1 3f
       -0.07383947301766741 0.06901478571381271
0000f0 9d 49 28 e6 4d 5e a8 bf ad 45 6d 2e 1b 2d b3 bf
       -0.04759448465860603 -0.0749070156428135
000100 4a 48 69 e0 ea 5a 99 3f f8 dd 73 86 c9 ea b4 bf
       0.024760885188080096 -0.08170756847891159
000110 17 d6 9e b9 74 17 8b bf 7e 87 d0 fb 40 98 a6 bf
       -0.01322833243817016 -0.04413035463245672
000120 6d aa 21 b4 ac d9 c4 bf 14 f3 b5 4d 2f 05 8b 3f
       -0.16289290233119705 0.013193482932132329
000130 47 b2 de 38 1d 03 a0 bf b4 40 2e 26 7c 65 a3 3f
       -0.03127375907147161 0.03788364378044787
000140 a9 e1 ce db f6 83 ac bf d3 45 9d e2 3b aa 99 3f
       -0.05569430764393541 0.025063453394357737
000150 8f 16 4c b7 81 b4 53 3f d9 23 3f aa b8 4f b7 bf
       0.0012027041204318056 -0.09106020122921112
000160 85 ae bd 44 5c 18 b2 3f 3f 9e d0 1a 54 60 9b 3f
       0.07068421056981762 0.026734651695873742
000170 81 cf f6 ad b7 62 a8 3f 1f 24 ce 20 84 a7 b0 3f
       0.047628154741146574 0.06505609322461268
000180 bd 42 e9 d6 00 93 9b 3f 6d 0e 28 90 e5 30 98 3f
       0.026927960507523652 0.023624026225674322
000190 cd 09 d5 60 46 87 91 bf 8a 7f b1 51 6d 04 a5 bf
       -0.01711759534851769 -0.04104940054162316
0001a0 47 6e be 53 3d a9 a7 bf bb 76 72 60 bc 2f 6f bf
       -0.0462130703665165 -0.00380694191296879
0001b0 d5 2e 10 c4 cf 1c ad 3f 47 fd 5a 21 26 fe af 3f
       0.05686043995237148 0.062485877582271025
0001c0 be 85 1d f2 08 ec bb bf 86 d6 ba b4 82 0b 4e bf
       -0.10907035742777446 -0.000916899510648065
0001d0 d7 84 37 a9 5f 06 94 bf f1 62 84 19 df cc b7 bf
       -0.019555563643625398 -0.09296984074570581
0001e0 d9 81 dd dd 74 32 b8 3f b2 1d 65 a1 91 af 89 bf
       0.09451990524895083 -0.012541902292141003
0001f0 d8 4b 97 7c 2e 59 79 bf ed c5 4d 32 83 8c ac 3f
       -0.006188565815551571 0.05575952519474101
000200 53 fb 19 c3 c6 3b 7d 3f 03 42 5c 7f 13 45 b4 bf
       0.007137085356247424 -0.07917901858696301
000210 f6 a1 1d fa 1a d8 85 3f 74 95 af 4d 90 23 b8 3f
       0.010666094549109478 0.09429265877368725
000220 9e 66 34 6e c0 46 a1 3f 42 0f 78 c4 ba 19 ac bf
       0.033742917492600485 -0.054883800967245225
000230 80 30 a7 2b ee ad ac 3f 2d 91 f1 29 53 ed c2 bf
       0.05601448328852232 -0.14786757991817848
000240 b7 27 51 11 c9 45 43 3f ef 80 cd 53 53 6f 9c bf
       0.0005881530547722145 -0.02776842307082544
000250 80 31 f4 3d 1f fc b2 3f d8 d9 5a 50 68 8c a7 bf
       0.07415957701249987 -0.045993099030443296
000260 0d ac 30 4e e0 b1 b7 3f 77 25 85 71 3c 22 89 bf
       0.09255792530954939 -0.01227233144222127
000270 1c 3f d6 9a 87 79 65 3f a9 f9 50 9f 5c 13 af 3f
       0.0026214264423244493 0.06069459385661286
000280 84 40 cb 13 7f 92 9b bf 11 9b c8 61 8e 89 a9 bf
       -0.026926026900412584 -0.04987759536407144
000290 e8 a2 70 98 5f 3a ab 3f c8 78 44 e7 7f fa 8c bf
       0.05317972884978933 -0.014149665112708112
0002a0 a4 61 ae aa ce e7 90 3f 14 17 d0 d4 85 3c 91 bf
       0.016509274642517405 -0.016832438577714617
0002b0 89 18 a8 9e 69 bd a1 bf 71 12 e6 f5 9e f3 69 3f
       -0.034648228280318945 0.003167925329025594
0002c0 b2 64 40 b2 6a 4b a6 bf 4e 64 53 c3 fb 1a 98 bf
       -0.04354413438722683 -0.023540433689820887
0002d0 89 05 ae 9a 70 c0 a1 3f 71 5e 17 d6 84 da a5 bf
       0.034671324617202855 -0.0426827918378735
0002e0 7b bc 1f bb 5f 7f a7 3f 0f 0e 4a 5a 91 c3 5e 3f
       0.04589366111019274 0.0018776816806686002
0002f0 02 74 5f 23 06 6d b1 bf 7e c1 0f a1 92 f5 b6 3f
       -0.06806982387156782 0.08968464309851318
000300 56 b2 7e 0c 12 34 c7 bf 0a aa b5 8f 57 21 8b 3f
       -0.18127656564810718 0.01324718863789533
000310 81 34 32 8e e1 07 a4 bf 8d f9 86 2c bb 83 ae 3f
       -0.039122627838062314 0.059598778901533846
000320 62 19 d2 50 62 34 68 bf 9e 24 a7 20 c7 f3 c8 3f
       -0.0029546661594991733 0.1949395093381882
000330 05 a1 59 09 55 01 96 3f cf c5 19 80 2e b6 7b 3f
       0.02148945684021532 0.006765538828049824
000340 96 f8 b6 cd 07 8a a7 3f d3 7c 57 b3 49 b3 ae 3f
       0.045974964009915784 0.05996160806875541
000350 fa d3 c6 54 95 73 b1 3f 97 c8 04 35 1d e9 8c bf
       0.06816991157286614 -0.014116504841329465
000360 c8 f6 93 43 23 8b b0 bf 8a 5f dc 3b 9b bb 8f 3f
       -0.06462307357648023 0.01549454952650799
000370 ec 1d 9f 21 2c e4 9d 3f 70 47 1b e9 ed 3e a4 bf
       0.02919072108468683 -0.039542612748518446
000380 8f f2 17 e2 a8 c1 ab bf f2 cd 10 96 a7 cf 9f bf
       -0.054211881255445175 -0.03106557706287378
000390 07 0e 20 9a 7f 04 a4 3f 93 41 e8 bb 22 ae bc bf
       0.03909682041560463 -0.11203209960536346
0003a0 24 60 bb 84 f0 6f a0 bf d4 4b 79 79 63 fe a8 3f
       -0.03210403080237281 0.04881583078226695
0003b0 25 f3 c4 93 fc 73 80 bf a8 b3 8c 36 8f 86 9e 3f
       -0.008033726939737538 0.02981017847485004
0003c0 21 01 e0 29 99 b1 9d 3f f7 42 90 47 f7 f7 87 3f
       0.028997796231125087 0.011703426238484733
0003d0 bd e0 f0 0a d8 fe b9 bf 60 2b c6 48 0c c6 b0 3f
       -0.10154485957253008 0.0655219724341527
0003e0 d4 45 b2 fd ce 79 c9 3f 93 d1 e2 2c 20 ab 81 bf
       0.19902980220335442 -0.008627177591144874
0003f0 04 26 38 17 d3 3f a2 3f 20 46 ae 0e ea d1 a9 bf
       0.03564319284857834 -0.05042964390953508
000400 ef 63 08 f8 0a cf ae bf 43 3f 5a cb e1 6e 69 3f
       -0.06017336156600794 0.0031046304746452937
000410 0f 7b d4 90 ef 06 94 3f f4 65 d4 d1 23 60 92 3f
       0.01955770799133477 0.017944869691836687
000420 4e cf 1c 82 49 af 99 3f 4c 3c 65 04 10 42 9c 3f
       0.02508272987979803 0.02759575869395929
000430 59 9c 36 4b 4e 56 9b 3f 45 c8 7b 93 3d 9d a8 3f
       0.02669641813340848 0.04807465005241388
000440 3f 75 e6 35 5c 51 89 3f 4b 2e 8e de 6c 7a 8e bf
       0.012362213511375784 -0.014881945173122043
000450 10 66 e3 09 41 19 b1 3f bc b6 44 5d 12 7b b3 bf
       0.06679159633076659 -0.07609667565403816
000460 ff 64 20 ac 64 e3 b7 3f 61 f4 93 ac e0 5c 8c 3f
       0.09331349565799839 0.01384902502695179
000470 4a 75 4e 4e ee 39 94 bf 81 32 e5 26 45 a5 b8 bf
       -0.019752238778541632 -0.09627182197182017
000480 7d a4 39 ef 36 02 9a bf b7 70 5e 20 61 d8 b7 bf
       -0.02539907298197307 -0.09314543762451676
000490 81 34 ec df d4 73 95 3f f2 0c 22 0c 81 92 93 3f
       0.020949674765735175 0.01911355625680939
0004a0 52 4b 26 c4 3d c1 9f 3f 83 3b b2 2f f6 f1 82 3f
       0.031010594460507086 0.009250567751477373
0004b0 bd 36 c3 df 99 a8 a0 3f d3 9b e2 b9 5a 52 79 3f
       0.03253632408596505 0.006182054900057704
0004c0 dd e5 d5 09 24 34 98 3f b0 c6 e9 a6 4f 42 ad 3f
       0.02363640127211918 0.057146538853783624
0004d0 eb 5d 28 f7 02 7f a2 bf ad 71 36 f0 f7 c9 36 3f
       -0.03612527148305474 0.00034773162061598855
0004e0 12 6c 09 2c 68 0f 76 bf 59 9d b6 ce 4c 4a 95 bf
       -0.005385786935756991 -0.020791244618206892
0004f0 54 28 41 b5 6b 5f 71 bf 13 bd 16 46 50 b4 ab 3f
       -0.004241390928720962 0.05411005836082885
000500 51 92 74 7c 72 e5 b4 bf 9f 34 b1 18 70 b6 b1 3f
       -0.08162608660183791 0.0691900310786928
000510 b8 f3 bf 2c bb 2e ad bf 4e ee 84 7c 74 9b 85 bf
       -0.056997155392287835 -0.010550413179422648
000520 e0 19 4f 5a 7a 78 97 3f 60 5d c8 67 1a 22 ad 3f
       0.022920524370215634 0.056900811356338066
000530 75 4f 5b fe dd 12 a5 3f f3 b8 5d 17 7d c8 b4 3f
       0.04115957002582508 0.0811842138334418
000540 73 64 41 a3 a1 c8 6d bf d8 cf ab 1e 04 fe b0 bf
       -0.0036357075678493055 -0.06637597798163541
000550 89 c7 41 aa c6 92 ae bf da ef c6 1a 0c 3b b6 bf
       -0.059713562281913 -0.08683849004495361
000560 b2 55 38 b5 85 3e a5 3f d6 66 df 6a f2 90 b2 3f
       0.04149263226660639 0.07252421483226654
000570 36 d5 9a 15 9c 6a a3 bf 8a 21 26 20 8c 40 a6 bf
       -0.03792274249773657 -0.04346120731776455
000580 f2 6d a9 f4 d7 a4 a0 bf d1 27 73 88 9c 16 ab bf
       -0.032507656684824485 -0.05290688672683042
000590 27 e8 62 63 b2 e6 b3 3f d9 5e 77 bc 48 33 99 3f
       0.07773890425133399 0.024609695914334793
0005a0 37 d4 49 df a8 e8 b1 3f 5c 3a 9b 56 9c 32 9d bf
       0.06995635463120285 -0.028513376985581082
0005b0 62 66 f3 e3 6f 90 68 bf 02 49 ed 08 dd b7 58 bf
       -0.0029985604629530352 -0.0015086802047404317
0005c0 20 1c da 0e 81 2a b4 3f 6e 34 f8 e0 b2 d1 a3 3f
       0.0787735615977998 0.038709249460318826
0005d0 0a 0e f9 9c 2d 82 a5 3f 88 8f 32 87 d2 b5 91 bf
       0.04200880566761718 -0.01729515981845922
0005e0 2b db 7c 25 96 a4 b3 3f 0e 2b c6 5c cf 4f a7 3f
       0.07673014083125611 0.04553077704902907
0005f0 ce 28 2e 70 dd ed 87 3f 82 a4 05 a8 c4 d3 b7 3f
       0.01168416021916521 0.09307507612324353
000600 23 2d 9d 9a 78 ad b2 bf 4c d1 6e 0a 04 6d 99 bf
       -0.0729594590640557 -0.024829924713871507
000610 05 9f 22 24 57 c0 a8 bf 53 f5 04 96 f8 53 af bf
       -0.0483424407587432 -0.061187523186598945
000620 d9 7e 80 4b 85 c4 90 3f f7 60 e0 a1 d0 ef 9a bf
       0.016374666913292344 -0.026305446510463928
000630 e8 b3 f2 37 24 f9 a5 3f 52 a4 eb 7a 55 21 ab bf
       0.042916423635098344 -0.052988692526760986
000640 9e 2b d4 26 73 29 a7 bf 28 82 fa d6 88 72 a2 bf
       -0.04523811196312198 -0.03603007911920414
000650 a4 49 63 58 bf 01 a6 bf c2 8b 52 ae 85 42 58 bf
       -0.04298208192780642 -0.0014807038763044876
000660 45 c9 43 10 3e 24 b1 3f 9e c5 44 3e f9 f0 a6 3f
       0.06695926568116757 0.04480723271479835
000670 5a 7f 9b 57 d3 b9 a2 bf 52 b1 87 28 a6 90 b5 3f
       -0.036573986477150114 0.08423841943267021
000680 68 8f fb 13 bc 27 90 3f 26 33 23 74 a3 40 9f 3f
       0.01577657577480754 0.03052001377436677
000690 7d ac aa b7 3a ca a3 bf 22 e4 bd c2 cd ed b1 bf
       -0.03865226261162833 -0.07003484730184131
0006a0 67 7b 7f 7d 7d c3 93 bf 8c 13 c3 14 e1 36 73 3f
       -0.01930042341688978 0.004691008780530203
0006b0 6b 8a 9d 1a 9d 77 b5 bf 61 f8 5a 33 8f 23 31 bf
       -0.0838564100245464 -0.00026151891811910215
0006c0 35 2b 31 50 88 16 93 bf ea b6 0f 4b 46 49 b0 3f
       -0.018640642065558672 0.06361808140328731
0006d0 cf 18 c6 59 ce a9 ab bf 99 67 4a 0e 9b 2f b0 bf
       -0.0540298924052408 -0.06322640513317736
0006e0 08 31 0b e6 e9 22 b0 bf f2 71 fb 1d d7 40 a8 3f
       -0.06303274027158434 0.04736969223970168
0006f0 dc d7 2a 65 10 ad ae bf 0a 69 be 16 4f a0 ab 3f
       -0.05991412386849479 0.05395743515619429
000700 d1 0f b9 b9 fe 73 8d 3f 03 5e b6 8f 2f ea b7 3f
       0.01438139919549278 0.09341714151957352
000710 58 ab 23 16 33 80 a3 3f 1c 38 b3 cd 94 4b 86 bf
       0.03808745999579938 -0.010886347320049387
000720 2f 27 b0 5d 74 f5 a0 3f da 70 63 8d 73 53 9f 3f
       0.03312266963628329 0.030591779236474582
000730 1d 7f 67 76 61 81 ab 3f 2c 7f c8 a6 8f 6e a5 3f
       0.05372147150387561 0.041859139546657737
000740 0f 00 0d fc d5 53 a7 bf 47 d4 a6 1b 34 79 8c bf
       -0.04556149198333525 -0.01390305241953106
000750 59 9f 44 04 6a fa 9f bf c7 44 22 db f5 d1 93 bf
       -0.03122869158792638 -0.01935562276827765
000760 f0 32 13 d4 24 1a b3 bf 82 5c 20 87 54 4d 97 bf
       -0.07461767366039473 -0.022755928752385753
000770 92 a2 20 79 4e 98 8f bf a8 8f 4d 04 ec a6 89 3f
       -0.01542722041274772 0.012525409585300754
000780 b1 ec b1 5a c0 af 74 3f 2e 94 18 72 2a ee b2 bf
       0.00505042208089461 -0.07394662175700326
000790 2a 5e fb 0a 99 27 98 3f 8a bc 5e 3e 81 8a ac 3f
       0.02358855371025307 0.05574420820573163
0007a0 6e 65 8d ce b4 44 84 bf 46 25 87 41 84 09 a4 bf
       -0.009896671823002658 -0.03913510608578945
0007b0 9b 9c 2e ef dc 53 96 3f 17 b9 3d 4e 32 b4 9c bf
       0.021804287050738762 -0.02803114512010393
0007c0 0e c6 e8 b8 2a 60 99 3f 5d c1 e2 2c 65 dc b8 bf
       0.02478091004940635 -0.0971129641136534
0007d0 15 d4 6d 12 ef fe a8 bf d7 0c a3 65 df 6d bc 3f
       -0.04881999111140815 0.11105152350778567
0007e0 f7 03 07 00 24 75 a4 3f 50 5c 14 35 2c c8 4a bf
       0.03995621204695248 -0.0008173194748079069
0007f0 5b e3 aa 2b 7f 9a b2 bf bc 9b 13 dd ec 53 9a bf
       -0.07266993347265098 -0.025710774415440105
