dataset/mac_model.pt (torch, 567964 bytes, 6 tensors)

hidden1.weight f8 [256, 12]
0	0x3fb6dc821f4cf52a	0.08930218948531335
1	0xbfcf077e5f571159	-0.24241618781355603
2	0xbfa8ffa39afa1d1e	-0.048825371425716066
3	0xbfd7ed2b14011c29	-0.373850602660641
4	0xbfab1f472a38a712	-0.05297300711056442
5	0xbfcad4d006ede064	-0.20961952532138917
6	0xbf42ec75ead77d00	-0.0005775047081292561
7	0x3f7a58e90c569429	0.0064324477620277066
8	0x3faec36314190c47	0.06008443470320706
9	0x3fd525ca028c5963	0.33043146370746096
10	0xbfcb32f2a5ea8440	-0.2124923048150169
11	0x3f819eb135b77a67	0.008603462650112094
12	0xbfa03d7e84a2797a	-0.03171916359973444
13	0x3fd1e3cfb7d26423	0.27952950431205376
14	0x3faa114a64d57830	0.050913166817494804
15	0x3f9949b718f3fe09	0.024695263765350393
16	0x3fb30816205a2a2a	0.07434213914726998
17	0xbfb7af2b0e02edf9	-0.09251660434795629
18	0xbfbce81bf69a5e87	-0.11291670580464529
19	0xbfb51ae83573cd49	-0.08244181923855821
20	0x3fbfe5343b2a775a	0.1245911259124716
21	0xbfa03b9603e6a893	-0.03170460507983921
22	0xbfcf026b3f147fac	-0.24226131992417999
23	0xbfa8b77baa121144	-0.04827486468369327
24	0xbfc0de3644b5da75	-0.1317813716411426
25	0xbfa8d34ab480c828	-0.04848702863127158
26	0xbfd3bcf79c8cab2a	-0.30840864456210915
27	0x3fbf29f9e0922c47	0.12173425419511928
28	0x3fc49f48977f2f67	0.1611109485369255
29	0xbfbc0c8d5e9b7c0a	-0.10956653175115619
30	0xbfb3e62602512624	-0.07773053700034233
31	0xbfc8cb7bd11ff006	-0.19370982848329293
32	0xbfc3e508834347e8	-0.15542704018895326
33	0xbfb8849f6507a84b	-0.09577366081762866
34	0xbfb53c6a470bd2db	-0.08295311197782544
35	0x3fd1508fdc534885	0.27054211155076074
36	0x3fb70da5609abfc2	0.09005197151668567
37	0x3fc5a86fb54cc6c1	0.16920276978048857
38	0xbfcea25c2a78daed	-0.23932983468849703
39	0x3fcf00f7f528cbfb	0.24221705885574338
40	0x3fcbbedb267a53e3	0.2167619645958033
41	0xbfca2ba992a49697	-0.2044574705152413
42	0xbfcad33862177aab	-0.20957093038210436
43	0xbfc06a43b6a59522	-0.1282429353551971
44	0x3f9e93bc412ea825	0.02986044071045781
45	0xbfd09d1f01477bcb	-0.2595899116985804
46	0xbfc51ce4094b49bc	-0.16494417623341728
47	0x3fcfa71c4fa26922	0.24728731048964742
48	0xbfcb7cda7b3ca717	-0.21474772469928702
49	0x3fbd0fd0b357ac75	0.11352257135847472
50	0xbfb7656a2ee56e11	-0.09139121670653362
51	0x3fcb419f146db954	0.212940106367976
52	0x3fbc6bd06169143c	0.11102011087594205
53	0x3fc8bba798c31e05	0.1932267661961619
54	0xbf71f00b9948f042	-0.004379315669719887
55	0xbfa1f0662eeeedc3	-0.03503722498814057
56	0xbfd21c307f3cd9ee	-0.28297054696613955
57	0xbf8efda13c19d337	-0.015132197996743464
58	0xbfd59bdd4b366076	-0.3376382097717462
59	0xbfb45d4eb00c3a78	-0.07954875753441992
60	0xbfc41c1e4241b105	-0.1571080993193236
61	0x3fa18269563aaccc	0.03419808557131318
62	0x3fc6c98b4c415500	0.17802563880346867
63	0x3fcdf1d87b75c73d	0.23394304302524374
64	0x3fa2d16d78dfb0fa	0.03675405598173316
65	0xbf89bef79ac87759	-0.012571272288422074
66	0xbfc03892eaf5cd22	-0.1267264983431256
67	0xbf83e6dbbd09087b	-0.009717671114348505
68	0xbf9168e22a755f92	-0.01700166114946417
69	0xbf8a13fa6226a457	-0.012733417625741135
70	0xbfd6f600501c4e3d	-0.3587647230462812
71	0x3fc55cdf146fba65	0.1668967103755278
72	0x3fc1c79b18b70253	0.13890398699551784
73	0x3fbd60b41e202499	0.11475682960021273
74	0xbfb7aabdaf41ea09	-0.0924490502237988
75	0x3fc31a9db8630204	0.1492497587514806
76	0xbfbc0a41b782148f	-0.10953150491885054
77	0x3fb87825bb51ecc9	0.09558330367319735
78	0x3fbe3758f532b933	0.11803203569681812
79	0xbfc470a3636ac89a	-0.15968744615890246
80	0x3fb5a2c595cb293e	0.0845149508196856
81	0xbfd5ecbf86f2b1e9	-0.3425749605037525
82	0x3fd36cd11c599386	0.30351665276094086
83	0x3fc15e60447d2bfa	0.13569262832820056
84	0x3fd16137e8a0f204	0.27155873983045375
85	0x3fa15664db696b60	0.03386225870482096
86	0x3faa90df9e412f35	0.05188654715365574
87	0x3fce9cdeba847e1e	0.23916229350378243
88	0x3fce08f5683796de	0.23464839543083021
89	0x3fd364dac32d0503	0.30303067264692646
90	0xbfcaab9bddf766c7	-0.20836208666042053
91	0x3fd59be252daf47f	0.33763940898263195
92	0x3fc37acd049df64d	0.15218508458558447
93	0x3f96dbcd06c12fd7	0.02232284883238819
94	0x3fd3f14fa2bb0c86	0.3116034592787361
95	0xbfc89abf534b3e7a	-0.19222251479230917
96	0xbfa21b8b31a6c1ce	-0.035366391955338736
97	0xbfcc8e75c6bcf2a9	-0.22309753612525654
98	0xbfc9c9ebd5534e00	-0.20147464672355397
99	0x3fd38c9780627c28	0.3054560426480202
100	0x3f8ac9bad5512615	0.013080081591527773
101	0xbfb79aa11269bcd5	-0.09220320415055323
102	0x3fc1d982e258e13d	0.13945041706188901
103	0xbfd0a16efedca547	-0.2598531235585892
104	0x3fba42c384aa980d	0.10258123387265546
105	0xbfd148c329517d55	-0.2700660613536077
106	0xbf5bb5b1fc580305	-0.001691268743684472
107	0xbfd3099d00af96d2	-0.2974617487619585
108	0x3fbea9485a96ecd1	0.1197705479780098
109	0x3fc2438c9a656ac5	0.14268643893122693
110	0x3fc609b9c849a5a4	0.17217180518791253
111	0x3f993f0711f42f7f	0.02465449378091433
112	0xbfcd510122f7aae4	-0.22903455932040295
113	0x3fc68c1b9fd139e7	0.17615075400904276
114	0x3fcabff6d9667ff9	0.20898328414205006
115	0x3fcf0def798691ea	0.24261277612562476
116	0x3fbf2fb5b7860e93	0.1218217442565737
117	0x3fb1e1ee85889a7d	0.06985369453523478
118	0x3fc796035a22f890	0.1842655363197463
119	0xbf97b8985dbf6200	-0.023165112230204343
120	0x3fb19b17352be074	0.06877274559144714
121	0xbfb301a9cd7f4178	-0.07424412982004991
122	0x3fc29f9e95cc41ee	0.14549619974469813
123	0x3fb63979107b7bf3	0.08681446697617883
124	0xbfb3bc2ee59e0c04	-0.07709019761936992
125	0x3fc4d01b04e04478	0.16260087717140315
126	0xbfb1fb9f896e3a51	-0.07024571519125657
127	0x3fd2c9080f00764d	0.2935199877264026
128	0xbfc1d1134a1c8edb	-0.13919297331550848
129	0xbfce9fe70cd03324	-0.23925483823440985
130	0xbfa4d4c9ca482bf7	-0.04068594545613984
131	0x3faf3a2dc7139730	0.06099074416287775
132	0x3fc2dcb6883c0dcf	0.1473606267173708
133	0xbfb3b6b958cb7808	-0.07700689714280895
134	0xbfce615f2ab88832	-0.23734654985406817
135	0xbfbbe34462013a08	-0.10893657105155097
136	0xbfbd43193d11c4d9	-0.1143050932021369
137	0xbfc9b10010879bab	-0.20071411902537525
138	0xbf9fef51c5f71c2d	-0.0311863686636366
139	0xbfadd8840f355912	-0.05829250989579483
140	0x3fc029b39f7f85d0	0.12627263343806172
141	0x3fcb6fe5420a9409	0.21435228085206884
142	0x3fd3171e51d144d7	0.29828603734956743
143	0x3fc70187f914ce53	0.1797342268197207
144	0xbfc86908ce6d11d8	-0.19070539550206322
145	0xbfb5da9cc5b44c83	-0.08536701037182763
146	0xbfbf58419c407769	-0.1224404341196227
147	0x3fb9cc2f5c9a4126	0.1007718659477673
148	0xbfc027d13a837860	-0.1262151275358887
149	0x3fc6dc1156870837	0.178590934037915
150	0x3fc9ef2e47d4b2e0	0.20261171824804247
151	0x3fcf90cf565c9a62	0.2466067477882517
152	0x3f81caee99218f6d	0.008687843368711612
153	0xbfd4c18f04ac355c	-0.32431388336484246
154	0x3fcfd857c15b642b	0.24878975812205914
155	0xbfb60b9ed80b080a	-0.08611481451501404
156	0xbfb80c120de38cfd	-0.09393418158611051
157	0x3fc66abbc91f12ba	0.17513224907283648
158	0x3fd23c6978bdc723	0.2849372557749225
159	0xbfd0a96d278da684	-0.2603409658682738
160	0x3fa0ce5772f4844a	0.032824261458025264
161	0x3fc320a50bdc416a	0.1494337375556925
162	0x3fbf8e638e8b684f	0.1232664320954495
163	0xbfd31c61553b4e30	-0.29860719035534355
164	0xbfd125ce380844b7	-0.2679324671926894
165	0x3fccdd12c5157053	0.2254966223071074
166	0xbf8b5be3057730eb	-0.013358853916451049
167	0xbfc8e2b63d924eb1	-0.19441869741841836
168	0xbfa016d794076f3f	-0.03142427141184933
169	0x3fab74d40c798a3a	0.05362570431022502
170	0xbfbc7038e6c16d5c	-0.11108737596207646
171	0x3fc0362e9177f06c	0.12665350058512403
172	0x3fc4a30cc8aa180b	0.1612258891875061
173	0xbfd215fb246bf9c3	-0.28259161526503024
174	0xbfc079f887191651	-0.12872225376684068
175	0xbfb00a30422f0507	-0.06265546432316081
176	0x3fc3bf8c0f75dac0	0.1542830539217075
177	0xbfb4582d398f6274	-0.0794704690482691
178	0x3f7567d12ec56e06	0.005225960845872906
179	0x3fd021e92c82eea4	0.2520697531397025
180	0xbfbae1241dcb4410	-0.10499788024323231
181	0xbf863e9ba78a38bb	-0.010861602831280561
182	0x3fd22ec4b003ac2b	0.28410451115513763
183	0xbfd3504abf3712a5	-0.30177563355781906
184	0xbfc2b9f96165f568	-0.14630048042082966
185	0xbfd2384db83a5f54	-0.284686498556302
186	0xbfc44c57275ce976	-0.158579725475487
187	0xbfbe4fc0b3e6b3f4	-0.11840443031424269
188	0x3fcb4ad2c051eaa9	0.21322092428802833
189	0xbfa1dbaf116dc261	-0.034879179837734815
190	0x3fcbcfdf83b1aa3e	0.21728128366824423
191	0x3fa5a3da31969727	0.04226571898770564
192	0x3fb5cec2eca07e88	0.08518617894196201
193	0x3fb3ff740245d6e2	0.07811665587891128
194	0x3fd05d8000e404e7	0.25570678793890383
195	0x3fd0e254e586b3be	0.26381418623605757
196	0x3fc8ee0a5a204314	0.19476441765484565
197	0x3fc1662fec7d8a6c	0.1359310059297799
198	0xbfb87d225e035a2c	-0.0956593970798642
199	0x3fbee0983fb52aaa	0.12061454348910652
200	0x3fbeeaf51f0358be	0.12077266699938868
201	0x3fbb010bac567a81	0.1054847045656775
202	0xbfb8e68b9d4b067f	-0.09726784315264501
203	0xbfcceff3a7d86cc6	-0.2260727471883454
204	0xbf78f154ec659af0	-0.006089526874666559
205	0x3fd0830817ba92df	0.25799753491655325
206	0x3fc38c957070148c	0.15272777547958005
207	0x3faa4fc772cbb784	0.05138991619411029
208	0xbfd00be997c774d8	-0.25072707960300766
209	0x3fc1591e4154ec3f	0.13553217115426894
210	0xbfd1f45dfcca84af	-0.2805399864829025
211	0xbf9ec6975ce9d78c	-0.030054440542208335
212	0x3fbc54a3ec4df398	0.1106665088572768
213	0xbfd2dbfe96eec07f	-0.2946773981048025
214	0x3f9840763a21c862	0.023683402345746514
215	0x3fd0feb83c888a0d	0.2655468550821361
216	0xbfb6fd0a971f7c6a	-0.08979860486532379
217	0xbfb702173f111069	-0.0898756531688051
218	0xbfd28d41713065b9	-0.2898715596544111
219	0xbfa6922902421975	-0.044083863759669585
220	0x3fd0b84cebfb42dc	0.26124880833689956
221	0xbf9578e1bebb262c	-0.02096894003515197
222	0x3fc56cd822d99a9c	0.167384163872346
223	0x3f85402c906d0e6e	0.010376308591396124
224	0x3f814ad6d28ea5e0	0.008443525601097457
225	0x3fc4a755977a02bc	0.16135663887327734
226	0x3fa0f2f08d5a9e16	0.033103482489704
227	0xbf931677e7b60df9	-0.018640397565389908
228	0x3fb43bae9274ca11	0.07903567386237166
229	0x3fa3e1a8f69f93d0	0.03883102427042895
230	0x3fd27816cc3ede6e	0.28857965417726106
231	0x3fc759cbe4a3ffcd	0.18242787040799016
232	0xbfd040e12eb998c9	-0.25395993769633357
233	0xbfb798c4e562591f	-0.09217482185554048
234	0xbfd1e520499bf174	-0.27960974872964717
235	0x3fc2cd9ebc077ca5	0.14690002614131462
236	0x3fccf5e588fd31cd	0.22625416935842538
237	0xbfd0681daa51f29c	-0.2563547290117556
238	0xbf91982d4c6e4c9e	-0.017182071485490107
239	0xbfbe5a8e62adfa12	-0.1185692778508172
240	0x3fb4be2abb68d6fd	0.08102671695163717
241	0xbf91a3a4f1f1c676	-0.01722581602775227
242	0xbfc3316df034d9d6	-0.14994596699553026
243	0xbfaff9b14b3b88cc	-0.0624518780075661
244	0x3fc08dab05cfa003	0.12932336601011238
245	0x3f9982a56539b8d3	0.024912437728226444
246	0x3fc6a123c89e0d9d	0.1767925958230138
247	0xbfb898e8705a485a	-0.09608319037423155
248	0x3fad7c6c1cf14ecb	0.05758989194205596
249	0xbf997ffb52a5383b	-0.024902274054788825
250	0x3fcd51f305596e68	0.22906339417646682
251	0x3fd358a7e5dca033	0.30228612372821145
252	0x3fba219d6ff9627e	0.10207542403930778
253	0x3f9cf15901e25bd3	0.028264418354037545
254	0xbfc1e117c6fe7876	-0.1396817895555988
255	0xbfc8a470b3d2528d	-0.19251831798887445

hidden1.bias f8 [256]
0	0xbfcceae82775abab	-0.22591878821125752
1	0x3fcbd0126da8ffdb	0.2172873530817004
2	0x3fb18775de8c92ea	0.06847321208313031
3	0x3fc0a0d9bb6c6692	0.1299087681916729
4	0x3f92623c5cf049ad	0.017952864811442804
5	0xbfa96ce84fa54f9b	-0.04965902302015409
6	0x3fad32e46633debc	0.05702890155401749
7	0x3fcdda109b9d9083	0.2332173118439905
8	0x3fb218b4b9c79022	0.07068948302873015
9	0x3fc62f4b6e57629b	0.17331831825028562
10	0xbfc103bbcaff8bbe	-0.13292643939993626
11	0x3fc9876e7011753f	0.19944553825454567
12	0xbfcb81e5c83e4c31	-0.2149016597510083
13	0x3fb4893a30335faa	0.08021892239355446
14	0xbfc50bf3d2bc361a	-0.1644272593479606
15	0x3fd07380f42e4b8c	0.2570497879580038
16	0xbf9aa9c89e5bc1db	-0.026038298287803
17	0x3fc6766e43cb0a87	0.17548921880923649
18	0xbfad3126034f8647	-0.05701559820569151
19	0x3fc047f54634cf16	0.12719598701516394
20	0xbfcf53ff75192dd8	-0.24475091188138154
21	0xbfcb786da264a807	-0.21461267880778243
22	0xbfc9dcf38a9ec221	-0.20205539959489818
23	0xbfc5d227305b9c0d	-0.17047586308692111
24	0x3fb59176da0f8f43	0.0842508585333777
25	0xbfbf070922643db3	-0.12120110597265103
26	0xbfbd04368d122dbe	-0.11334553665272204
27	0xbfb46462bd9c6149	-0.07965676430865644
28	0x3fcfe0ed12e2c0d1	0.24905169889598835
29	0x3fb57b20337899b0	0.08391000038736851
30	0x3fa3997ee7517fe9	0.03828045438490319
31	0x3fae6dd2fb854427	0.059431641772455905
32	0x3fc091b465c7c898	0.12944655389543835
33	0xbfbe333be29f5d0f	-0.11796926768089498
34	0xbf9bdb9f130b08f8	-0.02720497659425633
35	0xbfc54a0e19909dbe	-0.1663224816158912
36	0xbfc449581709cbd0	-0.15848828434863416
37	0x3fca8f2dce6236ba	0.2074944741947798
38	0x3fc13a466c11da4c	0.1345909145054115
39	0x3fca1add84b975c5	0.2039448640888805
40	0x3fc45de70e3001cb	0.15911567871809348
41	0xbfce98b028f3cac3	-0.23903467177986756
42	0x3fba339da9f45d80	0.1023500957420449
43	0xbf81873a4db443ff	-0.008558707710593081
44	0x3fbd7368b285e031	0.115042251190858
45	0x3f7e07861ed166d7	0.007331394107575404
46	0x3fc96a97d4fbbd8e	0.19856546306207828
47	0x3fc14ff63c03a15b	0.1352527421033852
48	0x3fb780a582cac13c	0.09180674021877605
49	0x3f74000620e99e58	0.004882835330682754
50	0x3f9b2e408805db1b	0.026543625166108514
51	0x3fcdcfc80f9aacc6	0.23290348779605646
52	0x3fab38144f662ad4	0.053162226383468486
53	0x3fc2f07fe15dd29b	0.14796446327422505
54	0x3fb552112b1ac31b	0.08328349401814387
55	0x3fc1cacf3e3e4821	0.13900175608847667
56	0xbfc014794a5683ee	-0.1256248105028414
57	0x3fb31adba3dabde6	0.07462857008317023
58	0x3fba5e90eb92d05d	0.1030054640894504
59	0xbfbf7b1deb4e40b5	-0.12297236437575772
60	0xbfbbe23d99c55ff2	-0.1089209080140561
61	0x3fc8488f8f84d290	0.18971437938457258
62	0x3f8fea5ee0676b96	0.01558374521566978
63	0xbfbb0b958ab2e9e7	-0.1056455100651089
64	0x3fc7461c29216ace	0.18182708748175574
65	0x3fcf4818a0881e71	0.24438770140135405
66	0x3fc6fb02bdaf61fc	0.17953523885695677
67	0xbf938c450e315517	-0.019089774123434013
68	0xbfb070300b26052f	-0.06421184799366551
69	0x3fbd77228bc859c8	0.11509910500203724
70	0x3fc10dcbd13c4ea1	0.1332335254343109
71	0xbfc3e5f1265878c7	-0.1554547726854649
72	0x3faf821734e5a12c	0.061539387900497594
73	0x3fc629cd7e4cca8a	0.17315071742048743
74	0x3fabd7afe00db30a	0.05437993631389844
75	0x3fb19d7cabfab921	0.0688093109008361
76	0xbfa237792c8e820b	-0.03557947796730695
77	0xbfbb9508f5cf4bf0	-0.10774284363951359
78	0x3fbbf51bc2ccd5cd	0.1092088080011628
79	0xbfa7efe4e051be93	-0.0467521213366783
80	0xbfcc4e60f1ec40b3	-0.22114192783965833
81	0xbfb0a44d6f443b8a	-0.06500705687015632
82	0xbfb9147d95340e3c	-0.09796891110095712
83	0x3fb72ad39e392001	0.0904972325598692
84	0x3faa944983f61a38	0.05191259132248088
85	0x3fcf1a310309bc2e	0.24298679970112985
86	0x3fa8ba171282e40e	0.04829475499122547
87	0x3fbb57c26d116284	0.10680785334387549
88	0xbfa20576b3dec3d1	-0.03519793458634236
89	0x3fb76e2fde39821d	0.09152506995588579
90	0xbfbeac2a5ae8a530	-0.11981453628017813
91	0x3fab9adcd81f31ec	0.053915883428633155
92	0x3fa17eddfcd6f7fa	0.03417104445860271
93	0x3fcbad1b8ccf438c	0.21622032523603385
94	0x3fabfb3af4f70383	0.054651110079709596
95	0xbfc1a52ddc405749	-0.1378533673711735
96	0xbfc28d097bc410c0	-0.14492910903221023
97	0xbf9a0111c43fc8f0	-0.02539470444021047
98	0xbfb3335489796eb8	-0.07500198704058902
99	0x3fabaa5234ea9f96	0.05403382202103939
100	0xbfca8e315552f031	-0.2074643770810112
101	0xbfc2929129a62e25	-0.14509787114762776
102	0x3fb9177aa1e604f9	0.09801451161003517
103	0x3fc26df211035b33	0.14398027258604315
104	0x3fce7047e79bd63b	0.23780154046078103
105	0xbfb736d10c8c6a2a	-0.09068018490180721
106	0x3fc23511f5aff2e2	0.14224457260561169
107	0x3fc8317e60fc4723	0.18901042686098277
108	0xbfcb3f9e6b578ec3	-0.21287899247464823
109	0x3fc1e3fc7e875815	0.13977008989485343
110	0x3fa0aea3d94103ce	0.03258239771867687
111	0x3fc9a821dc7baf5c	0.20044348970202008
112	0x3fb102a36836b735	0.06644650739937392
113	0x3fca1ed2a1ee5b45	0.2040656366995909
114	0xbfaf70106aade700	-0.06140185644376395
115	0xbfc84f68902ba7b1	-0.18992335357262172
116	0x3fa6be29e5685172	0.044419583562702494
117	0x3fbeb1a9f31a537e	0.11989843545081943
118	0x3fc4a1f3bf6a4a29	0.16119238707013153
119	0x3fc8ae53ec868007	0.1928200631055008
120	0x3fc7187d62ddf525	0.18043486907473852
121	0x3f93ec2494c692cc	0.019455501156374663
122	0xbfc20a936d3170c9	-0.14094775039382615
123	0xbfcba28eed184aaa	-0.21589838578127757
124	0xbfa0cf23c15c986c	-0.032830350259516944
125	0x3fa8bbc2862863d0	0.048307494045907284
126	0x3fcd846401b576ad	0.2306027420371967
127	0x3fc0df869216536d	0.1318214619938333
128	0xbfa9e211484467ac	-0.05055288321655324
129	0xbfaad5fc38c0a45a	-0.05241382782725941
130	0xbf93f43c7e2172bc	-0.019486375044254642
131	0xbf8b4eca8a8a4eb2	-0.013333875992692288
132	0xbfc33e3ebec09d7c	-0.1503370696457117
133	0x3f936a6a92d4d534	0.018960633479953873
134	0x3fc604b6f2c94ece	0.17201887945940658
135	0x3f9467a72b9e5151	0.01992665485120543
136	0xbfaa2331a3a4cf61	-0.05104975817303515
137	0x3fcd170dddd755c5	0.2272660573204758
138	0xbfb422105dce3f6e	-0.07864477434327252
139	0x3fa83b94921d5253	0.047329562031028026
140	0xbfc86fe4fded3f69	-0.1909147491337493
141	0x3fc610ea5b98902b	0.1723912188764428
142	0xbfc3bcd705ef38a1	-0.1542004374482007
143	0xbfcfa1d7c61c79ae	-0.2471265523281096
144	0x3fd0a89b04de4f67	0.2602908656638107
145	0xbfcd656e73d77b9e	-0.2296579423554847
146	0xbfa94ea5d5f73530	-0.049428160065512095
147	0xbfb48364c08d1f2d	-0.08012990666349813
148	0x3fc5a9d385287f1e	0.16924518586983422
149	0x3fcd8e00e85e5c6a	0.2308961042988103
150	0x3f81595b52693fed	0.008471215679634237
151	0xbfa2ba5e3559a273	-0.03657812501189008
152	0x3fba46476c17d072	0.10263487233152249
153	0xbfbc578cf6bc18f2	-0.11071091674611802
154	0xbfc3f7ffc4f97790	-0.15600583188910067
155	0xbfce7cbb690ba794	-0.23818152074028076
156	0x3fce53c06ec4f96c	0.23693089874900453
157	0xbfb5996db530a21a	-0.08437238381942117
158	0xbfce314ab56bbdc9	-0.23587926729622513
159	0xbfa3564a60850d89	-0.037767719537920526
160	0x3fa7818ba617ada4	0.0459102287530542
161	0xbfba5b2c1479762f	-0.10295367717613922
162	0x3fb1e49e2b1bd4af	0.06989468147715415
163	0xbfc572aea1f92c9c	-0.16756232174734442
164	0xbfb93b77def7b4ce	-0.0985636634211062
165	0x3fb6e3e9b9668965	0.08941517616634582
166	0x3f9c38f4eed8a91a	0.027561022832892502
167	0x3fbb57b5045a2c97	0.10680705410247736
168	0x3fa0e9e88825f2ee	0.033034578914316146
169	0x3fcc0d2db050ee0c	0.21915217503725193
170	0xbfae282a9731af7e	-0.058900195080098236
171	0x3fc0c7d743ed64ed	0.13109865967525228
172	0x3fc28594e578f03b	0.14470158772189898
173	0x3fc95868476d775e	0.19801047790218268
174	0x3fc078543f92f403	0.12867215255928963
175	0x3fbb4cdb831d4042	0.10664150191337377
176	0xbfcd521885412527	-0.22906786448064873
177	0x3fb4b25c9e5e6ce0	0.08084658495356534
178	0x3fd11ca28dcda247	0.26737274024938923
179	0xbfc03b3b6e1b7362	-0.12680762173013266
180	0x3fab120e3bb77538	0.0528721282860069
181	0x3fb558543d3cc1e7	0.08337904448558896
182	0xbfa1d12b0b36901d	-0.034798951262274815
183	0xbfade6da998ef0cb	-0.058401900525014115
184	0xbfb240ddf0f8ad7a	-0.07130229123202084
185	0x3f7470a99549cd6b	0.004990255769928491
186	0xbfc418b3bf5e6f67	-0.15700384945091203
187	0xbfcbc7fc0263d41d	-0.21704053990075148
188	0x3f77c8e4ce5a1050	0.005806821607283366
189	0xbf88e6710bd0334e	-0.012158282444966109
190	0x3fce4c63db934630	0.2367062399048776
191	0x3fc139b17519ad78	0.1345731565264534
192	0x3f999e96241e19af	0.025019021944467642
193	0x3f71e2edae3d6939	0.00436680644983261
194	0x3f63f725cc4efefe	0.00243718511998725
195	0x3fcd1ff35f53556c	0.2275375571686412
196	0x3fc64b73071a0602	0.17417753073463876
197	0x3fbf93dbea23cdaf	0.12334989992432698
198	0xbfbf56e3856dd478	-0.12241956718010438
199	0xbfb897954f823cf7	-0.09606297675258078
200	0xbfc3acab0a512bf9	-0.15370691303027664
201	0xbfa054e1531fc2e6	-0.03189758434007732
202	0xbfc892a31beeba2a	-0.1919750105275438
203	0x3f95153e02bb6d8c	0.02058884517360364
204	0x3fc5472b723fae0a	0.1662344272475454
205	0x3fc74d76f3343e30	0.18205153346251413
206	0x3fc5ddc2c249d98d	0.1708301018404196
207	0x3fb31fc632474c58	0.07470358588698056
208	0x3fa88fc50c24d8e1	0.04797187588921915
209	0xbfa123546bf39377	-0.03347266977087931
210	0xbfb9b175cfc95031	-0.10036407778653779
211	0xbf9fcc8d1ba6061e	-0.03105373841527214
212	0x3fcf618bdc3aad9f	0.2451643777215908
213	0xbf69847912543000	-0.003114925830805859
214	0x3fc403195072f1e4	0.15634457042860028
215	0x3fa724d2d871a416	0.045202816888213856
216	0x3fce94b0a77b1f93	0.23891266038685596
217	0xbfcf953fd702af45	-0.24674222944792681
218	0x3fcb2cbe29a53bc0	0.21230294259518523
219	0x3fb98e3f4e77e083	0.09982677140931355
220	0xbf9aa38335919485	-0.026014375824520392
221	0x3fc9a069bc47b78e	0.20020791715017733
222	0x3fa5018242b06003	0.041027136460058976
223	0xbfc3928db31bdb70	-0.152909958320119
224	0xbfc6c9cdf8be84e3	-0.17803358693803437
225	0xbfc72bd8760b0b47	-0.18102556003403888
226	0x3fceeed344cb644d	0.24166336878878028
227	0xbf36bd8df5e87690	-0.0003469916900103809
228	0xbfcb1103aa62d7dd	-0.21145673579820726
229	0xbfb7bc9f625de3cc	-0.09272190238506467
230	0x3fabe33b0eda6a69	0.054468007624753075
231	0xbfcadf82b79e7117	-0.20994600263373606
232	0x3fcb8ea6483eeea4	0.2152908184779011
233	0xbfb0c8dd90244bf7	-0.06556496399961974
234	0x3fc201a2fac9a96a	0.14067494626517468
235	0xbf936ac51525668e	-0.01896198216977623
236	0xbf874db3bce33021	-0.011378673746001823
237	0x3fa12527de5cc84c	0.03348660077462337
238	0xbfd0d6097982693a	-0.26306378236917605
239	0xbfc900a45f737e3f	-0.19533209477138944
240	0x3fc60b4c0730a718	0.17221975661350863
241	0x3fcb4ca248b402ee	0.21327618169745882
242	0x3fbc026379c006e0	0.10941144678511305
243	0x3f8f657499aa88d7	0.015330229701536897
244	0x3fcc0a763ce8df47	0.21906927084068625
245	0xbfcd335c739f27d9	-0.22812991757956416
246	0x3fc1c131e2c770f0	0.13870833943554528
247	0x3fbf67f6f5c08fd4	0.1226801252346939
248	0xbf9ad2105ae9ba4d	-0.02619195513619337
249	0xbf9a5dcdd80f613d	-0.02574845916009959
250	0x3fa555a726361083	0.04166910497136291
251	0xbfb3af81e96f91b6	-0.07689678143612508
252	0xbfc4903bcfd167c9	-0.1606516613708762
253	0x3f8bd7e54b72090d	0.013595382084762986
254	0xbfceddb12dc2f2ab	-0.24114050611924162
255	0xbfa13ec04dc6a2c8	-0.03368187856114485

hidden2.weight f8 [256, 256]
0	0x3fa99bc54fc53fab	0.050016561496362875
1	0xbfa0bf8845941c21	-0.03271127557132326
2	0x3f541d264368d45c	0.001227652899286078
3	0xbf750be7266ea637	-0.005138304643801875
4	0x3f9dd1e1fd27a8da	0.029120951725339995
5	0xbfab18ac047b8a63	-0.05292260699004172
6	0x3f81077d0fbba797	0.008315064470895623
7	0x3f9dad9684edc623	0.028982498038606985
8	0xbf85b9a0bf482fa1	-0.010607963407004041
9	0xbfa4dd48b52c473a	-0.04075076304992682
10	0x3f2acb81dc9ab383	0.00020442924715293958
11	0x3f7ba76315a6935c	0.006751429604638339
12	0x3fa50456e304f00c	0.041048732006373795
13	0x3fa0fc44f9afc692	0.033174663047146016
14	0x3fa9c6c000404184	0.05034446719230615
15	0xbf8d76334ed25098	-0.01438560566229112
16	0xbf6458541cc3b1c4	-0.002483524591403193
17	0x3fa32cb769bbe6f2	0.037450534493428736
18	0xbfa568d41c756bfc	-0.04181540343662246
19	0xbf9684d1ffbae2a8	-0.021991044267198362
20	0x3fab4a6cb0c40425	0.053302189424364856
21	0xbf9cdc38f71b7698	-0.028183832247001023
22	0x3fa31c7a6bc8529d	0.037326646477741955
23	0xbf8e4a4e8887d8f5	-0.014790166417679699
24	0x3fa762fd4ce2335f	0.0456771046020552
25	0x3f80cecf2c697de8	0.00820695738110451
26	0x3fa82f89d8c8cf86	0.047237689698163485
27	0xbf6c84c1adc4cb60	-0.0034812720097305155
28	0xbf9f55aa7697f2fb	-0.030600226868034302
29	0x3f9fb16afff72b8c	0.03095023333825568
30	0xbfa15db7fea63c8a	-0.03391814216149054
31	0xbfb420e12c49b119	-0.07862670260664507
32	0x3f9aa402d2320932	0.02601627738887053
33	0xbfa879a8053f7488	-0.047803164139375076
34	0xbfa4440f760bc45e	-0.03958175960531983
35	0xbf940915b5cd06b3	-0.019565905781979875
36	0x3fa675396a764567	0.04386310028633993
37	0xbf8205c1e5dcb902	-0.008800043895089708
38	0xbfac49b6d416ac4d	-0.05524989451381455
39	0x3f8db2ee96f0466a	0.014501441937713373
40	0xbfa6cbf4b8505616	-0.04452481031345827
41	0x3fa8f2b21b34b997	0.048726621457137735
42	0xbf6fecaf2522fd0a	-0.0038970394899419157
43	0xbf89abfae1425865	-0.012535057067264608
44	0x3fb0463d1dbc4c80	0.06357175804105175
45	0x3fabd98018fea308	0.05439377122031003
46	0x3fa549016c87b337	0.04157261323766764
47	0x3fa9501ef10ba5a9	0.049439398693560684
48	0x3f932c96f5baeaa2	0.0187247836572434
49	0x3f6b02cba3ab98eb	0.003297231419639881
50	0xbfa0f67cfe494fe4	-0.03313055614549379
51	0xbf78750d518b480d	-0.0059710045104157785
52	0xbfa3d13f1209813f	-0.03870579810313978
53	0xbf61e1196283b84e	-0.002182530956011986
54	0xbf8dae630de140ca	-0.014492772923546577
55	0x3faad34e85a92b28	0.052393392387406756
56	0x3fa5ecc5c8d95aea	0.04282205654879141
57	0xbf895d0dd3973868	-0.01238451768849931
58	0xbf5237555cefeffd	-0.0011118253348731948
59	0xbf8e498dbbf5236d	-0.014788729952344782
60	0x3fb0d62bc3b616e3	0.0657679894266852
61	0x3f96138393f44eb4	0.021558814912238503
62	0xbf97ba91a38996d3	-0.02317264137891224
63	0x3fa6d7e8fde7829c	0.044616013521367764
64	0x3f9e8dd7ac8f74d1	0.02983796110844567
65	0xbfb152b43557c666	-0.06766821195903958
66	0xbf6fe9268bdce16c	-0.00389535454351291
67	0x3fb0431c436da08d	0.06352402349659965
68	0xbf8da147bbf42441	-0.014467773841277178
69	0xbfab57a15d76ddc8	-0.05340294137880225
70	0x3fb3cb20bf0d41fa	0.07731823601103108
71	0x3f9960fbd20d27d0	0.024784025855559666
72	0xbf7fc781b5006d4f	-0.007758623760334273
73	0xbf7ef1136f02492c	-0.007554126656162102
74	0x3faa12861b7cad28	0.0509225758126724
75	0xbf9f5c02fe958444	-0.030624434269501913
76	0x3f9dff8f390f5d71	0.029295194490115365
77	0xbfa5882aade21a92	-0.04205449459646106
78	0x3fa1099d0f7fcf59	0.03327647031974718
79	0x3fa1a6a315535d8e	0.03447446475336867
80	0xbf62808383097da8	-0.0022585457411847427
81	0xbfadf33a3fdfb419	-0.05849630384168609
82	0x3facd10a399877a5	0.0562823481852626
83	0xbf8499bcda6a5705	-0.010058856406697023
84	0x3fa93f4f253762c4	0.04931113557149083
85	0xbf86dbe923da03c4	-0.01116163387928449
86	0xbf9e74ab9733d86d	-0.029741936782521728
87	0x3f806c002c5ef6d2	0.008018494943708463
88	0xbf984ab771a00e51	-0.02372252112401291
89	0xbfa69b4b4a077d4e	-0.04415354994466246
90	0x3fa8592a7145c05d	0.04755528099747217
91	0xbfa36fdd377abb24	-0.037962830564870736
92	0x3f8ae0630c22d225	0.013123296554433736
93	0xbf8c96e11e2ffe2d	-0.013959654554127255
94	0xbfaed54100ce15e0	-0.06022074827982826
95	0xbf9ba7bf91a85b6c	-0.02700709654353821
96	0xbfad9e79f4835ea1	-0.057849703882024935
97	0x3fa05d0773ade4ba	0.031959755774502566
98	0xbf9d5c3262729251	-0.028672015436898516
99	0x3fa6ff3c63ddf855	0.04491604537086916
100	0xbf7acf423dba0efa	-0.0065453136008988225
101	0xbf95a9276ad57af0	-0.021153083701729025
102	0x3f93ffadd9182894	0.019530025840176338
103	0xbf8a83c529ee2324	-0.012946644155606153
104	0x3fad738719fb00e9	0.057522031709142336
105	0x3fa0fea150f9d8d8	0.03319267381168495
106	0x3fb0ab4837f1d2f0	0.06511355748973435
107	0xbfa04793423eef58	-0.03179607566514048
108	0xbfab97b7fb95771f	-0.053891896687430434
109	0x3f8992bd847b2fb5	0.012486916165833731
110	0x3f85160b38954399	0.010295951523092305
111	0xbfa0403e7ad64ad7	-0.031740143294106175
112	0xbf8f3d2b775d0aec	-0.01525339086550078
113	0xbf9c11aab1af08f0	-0.027411143393472892
114	0x3f9df2a17e36bb11	0.02924587567184306
115	0xbfa0461ab296fcfd	-0.031784853268158365
116	0xbfa74aa13bd49ec4	-0.04549125533440937
117	0x3fa498031efed494	0.04022226098406026
118	0x3f62413a7516c19c	0.002228368925635672
119	0x3fa48d34954a8887	0.04013981172944719
120	0x3f74ad18d36446e8	0.005047890639859644
121	0x3fa2f120166ddd7c	0.03699589036744563
122	0x3f5ac95c5df20863	0.0016349222203478001
123	0x3fa4752dd3758335	0.03995650488173511
124	0x3fa164719f494c81	0.033969450658923435
125	0xbfa1b53e3d355db0	-0.03458590027974695
126	0x3fa0dd1276fa15c3	0.0329366464839427
127	0xbfa3fcc50ba3a1fd	-0.03903785483436548
128	0xbfa4de4cca001756	-0.04075851407837543
129	0x3f697b5e20a7d90a	0.0031105841092041774
130	0xbf96e20fa246a230	-0.022346729545150434
131	0x3f896232a8654b00	0.012394328846004665
132	0x3f9de0143298e0c3	0.02917510565586735
133	0x3fac6db8fa109e5c	0.0555246167426133
134	0x3facce3e4196b240	0.056261010652950194
135	0x3fa9be72bafe634f	0.05028112919462179
136	0x3f8ce8cef7a3870d	0.014115921909652518
137	0xbf9d492ce114bc9b	-0.02859945415292185
138	0x3fb03b37b7811fdf	0.06340358953559598
139	0x3f787488c93090c9	0.00597051078787931
140	0x3fa2d031d9160dc0	0.0367446496484507
141	0x3f7aa8b0a512c32c	0.00650853158838131
142	0xbfa2a2731bbea594	-0.0363956424110469
143	0xbf9bd97f5e6ea5bc	-0.027196874750790676
144	0xbf8111052ac48f9a	-0.008333244674368068
145	0x3fa0834aa9eed1d1	0.032251675838242407
146	0x3f766722be3a2568	0.005469451632629109
147	0x3fa2b30419e05bbd	0.03652203384279271
148	0x3fa484eebf6f51cc	0.040076695316802
149	0x3f9392e66e3c94fc	0.01911506698447328
150	0x3faa9c895937a54d	0.051975528851310494
151	0x3f9ef4cba07fbd25	0.030230695410805048
152	0x3f951ffdaf481adf	0.02062984831175185
153	0x3fa29b5023a9bfef	0.036341194489864274
154	0x3fa1178e30620b92	0.033382838636519044
155	0x3f8df408c9a2051c	0.014625614789340484
156	0x3f9628cd01c6e946	0.021640017732104576
157	0xbf8c82efaf7e9cb9	-0.01392161611859276
158	0x3f999381b657c1b6	0.024976755861588727
159	0x3fb320a59ee8f3ad	0.07471690301549812
160	0xbfa1928b5dde29e9	-0.03432117005202768
161	0x3f97f9afd3f630be	0.023413417160143217
162	0xbfac52c3000e29e2	-0.05531892181086896
163	0xbf8869b1eaf73d91	-0.011920347197615285
164	0x3f951dc60520ebb6	0.020621389449143122
165	0x3fab309164292e06	0.053104918934504794
166	0x3fb1dd992cb3bfda	0.0697875723014926
167	0x3fadb2bc902f25e5	0.05800427684841817
168	0xbf73310ba3d4244f	-0.0046854452787182385
169	0xbf749b74093deba8	-0.005031064287204602
170	0xbfa38a39ce29095a	-0.03816395417790615
171	0xbfb0f22adc744b74	-0.06619518167671662
172	0x3fa3192289d8b4fa	0.03730113918968843
173	0x3fabd4981e630f44	0.05435634013113469
174	0xbfa470b0146e1490	-0.039922239774605406
175	0xbfa89ae016de1b17	-0.04805660514016646
176	0xbf8688fe56c2f754	-0.01100348188662862
177	0xbfa481032256a4ec	-0.04004678529902059
178	0x3fb4259cbd6cedc2	0.07869891762395922
179	0xbfa06f92e1acb93f	-0.03210124020403037
180	0x3f997c6869b78a3f	0.024888640835238226
181	0xbf7980752c2ebb7f	-0.00622602243940562
182	0x3face2c5024238be	0.05641761448451764
183	0xbf977e1328129550	-0.022941874810063212
184	0x3fa9aed497cbe8a4	0.05016197541222425
185	0x3f9d1db0e02ab345	0.028433574373298205
186	0x3fa4a31b03c1da66	0.040306896408698376
187	0x3f42272157aae472	0.000553981094831303
188	0x3faf5f4ead8aed72	0.06127401226464259
189	0x3f547fa7ca8cc16a	0.0012511385522878346
190	0x3f9bd36ec945d702	0.02717373946639779
191	0x3fb665e69750dfd8	0.08749238199459286
192	0xbfae074c52f176f1	-0.058649430394082
193	0x3f922e2318bd69ed	0.017754124054912102
194	0xbfa8777068f45ca6	-0.04778624802764257
195	0xbfaa15616d865ef8	-0.05094437086080278
196	0x3f92f13e24f0a361	0.018498393063200228
197	0xbf8648da287adb16	-0.010881142006252936
198	0x3f96ad3749801937	0.02214514146910426
199	0x3f8971bea59857d2	0.012423982075272653
200	0xbfa23cee3c717fcf	-0.035621113661136065
201	0xbfa9a6d33cbdab50	-0.050100899853382175
202	0x3f891302d2d331e2	0.012243291910999102
203	0xbf9153d006a3672c	-0.016921282200974705
204	0x3fad4fabc1bcaa73	0.05724846591904944
205	0x3fa514564d7900f2	0.04117078490935623
206	0xbfa18efce1371d82	-0.03429403542719013
207	0x3fb4b6ec9d6b2b30	0.08091620295742241
208	0x3f99cab6c5221f84	0.025187354833661427
209	0x3fa138465e3f9b16	0.03363246822828196
210	0xbf908e0c23615794	-0.01616686788505424
211	0xbf940ac88b904ebb	-0.019572385328571622
212	0xbf97af2710db1eaf	-0.023129091647915597
213	0xbf82aec7c7301948	-0.009122429624778619
214	0xbfaa3d3b51637fb9	-0.05124841087831506
215	0x3f9909ed4cd22e69	0.02445193082216549
216	0x3f7996a3923565ca	0.006247176122394513
217	0x3fa988064665f3fd	0.04986590966561975
218	0xbfa82b96e3aa1069	-0.04720756081681616
219	0xbfac10966cc0a52c	-0.05481405332131781
220	0x3f99e45ba2cac649	0.025285178957977803
221	0x3fa517c82e13bd46	0.04119706690277751
222	0xbfa261581fedd6c0	-0.03589892759093294
223	0x3fadb25b085dce09	0.05800137021187985
224	0xbf81a7c73fcdac94	-0.008620792994142236
225	0xbf939420ed96b405	-0.01911975336195228
226	0x3fa47237387bb802	0.03993389667981263
227	0x3f9df5723c5d7caa	0.029256615576170354
228	0xbf86fc2039b9a958	-0.011223079454073456
229	0x3f8c6e755d9e8cc5	0.013882557792220482
230	0x3fb02b69286c7d15	0.06316239582928447
231	0x3fa0c2ed69fe447c	0.032737178028704655
232	0xbf9f5aeb4d2a5b75	-0.03062026651840762
233	0xbf8ed4713804ca67	-0.01505363895612284
234	0xbf8953ae47bc9201	-0.012366639675357229
235	0xbfa5cbfda5894c56	-0.042571951348371925
236	0xbfab75404b6e455e	-0.05362893029008363
237	0xbf82deccc5b9b991	-0.00921401956949522
238	0xbfa3bb13b7283b83	-0.03853665934376862
239	0x3f7134f68f2e6fda	0.004200900194430058
240	0xbf7349e76cd89fea	-0.004709152226077132
241	0xbfa9c8c1ab5ece36	-0.05035977570460341
242	0x3f9cc0b839eb05fe	0.028078917059934476
243	0x3f9a48b54ea0a7aa	0.02566798489002734
244	0xbf7eb09e4370f25e	-0.0074926550069532565
245	0xbf850d13fd6b0180	-0.010278850718692167
246	0x3fb17bbdd74f84a0	0.0682943964634597
247	0xbf8523c248cfd74f	-0.010322110983888825
248	0x3fa50c1704a20160	0.04110786372712272
249	0xbfb168a8b302a03b	-0.06800321932189572
250	0x3f7fc230b6856e07	0.007753553662350316
251	0x3fa45b99b9747633	0.03976135624746426
252	0xbf93a4eb2296b089	-0.01918380163776637
253	0xbf908bc0b8b13075	-0.01615811469336888
254	0xbfaefb0cbe24f889	-0.06050910779093594
255	0xbfa4c5c57506f461	-0.04057137540392187

hidden2.bias f8 [256]
0	0x3f9ba9a809e09221	0.02701437530790163
1	0xbf98f5ff537b87af	-0.024375905485505885
2	0xbfa85d83b8a30a04	-0.047588459290199864
3	0x3fa1ad1393ea83bb	0.034523593717728805
4	0xbf69ef3898d2a835	-0.003165827313371695
5	0x3fa6073939a2261c	0.04302386120350496
6	0x3f94462519f25e11	0.019798831661857422
7	0x3f9651a493556b75	0.021795817844899774
8	0x3fa193473e379feb	0.034326769204028405
9	0xbfa9988345bcdf7f	-0.049991705191529505
10	0x3f70a6967ff7d1e5	0.004065120592248371
11	0x3fa02ba20db20193	0.031582893535417565
12	0x3f8b64640466514c	0.013375073799388425
13	0xbf9b95281b5f4754	-0.026936175032296575
14	0x3faf32301148f5fb	0.06092977725027634
15	0x3f897468db4c8942	0.012429064934228354
16	0xbfaec7df85f86ab7	-0.060118661025815916
17	0x3faa17b3105439a0	0.05096206259087244
18	0x3f9bf396430c4b16	0.027296398012434407
19	0xbfab766ca0ae7107	-0.05363788091128368
20	0xbf7a6925ba90f0bb	-0.006447932603858837
21	0xbfad1a75c71bb876	-0.05684249930878675
22	0x3fa2336377e4ef31	0.035548313508540715
23	0x3f93d0e051fb7e00	0.01935148716336066
24	0xbfa159374493bbd1	-0.03388378822443595
25	0xbfa0c7f6c942172b	-0.03277560431256029
26	0xbf98407fe1315aee	-0.023683546180417396
27	0xbf5ec55ffdb9ba6d	-0.0018781125462755913
28	0xbfa533191aad791b	-0.04140547228483823
29	0x3fa78395dd9429f1	0.04592579202479275
30	0x3fa5845e4454440a	0.04202551445099097
31	0xbfa5bb2d3aeeeeec	-0.04244366974259414
32	0xbfacfb63eeb4cbe8	-0.05660545624632346
33	0x3f9627758ff0423f	0.021634900007543086
34	0x3f9e432abec391bc	0.029553096669489895
35	0xbf81f4906ddfa03e	-0.008767250397753053
36	0x3fab3125778c305e	0.05310933193513344
37	0x3fad8fab50dd6cbe	0.05773673402901512
38	0xbf817365670efc16	-0.008520881850811828
39	0x3faabf6c79efd07b	0.052241697201595515
40	0xbfad34f9f68c9b8a	-0.05704480299600963
41	0x3f92f38797bfe976	0.01850711692530057
42	0xbfa2c7dc445c05b8	-0.03668106398073284
43	0x3fa66ebf4cfe54ab	0.043813684605234236
44	0xbf8c9ae732c0f642	-0.01396732925069977
45	0xbf9caae4852a027f	-0.02799565375107926
46	0xbf86fc44caee961d	-0.011223351901047224
47	0x3fa959a615b7f0af	0.04951209082716567
48	0x3fa48109644f3bb8	0.040046971792996044
49	0xbfa2838a9eff8ba3	-0.03615983191391272
50	0x3fac3a4a4d320d6b	0.05513221924141017
51	0xbf71388a9e6da70d	-0.004204312782215569
52	0xbfaf75a80847453e	-0.06144452191405002
53	0x3fa1292829468c8e	0.03351712707378694
54	0xbf982dd7c50ad116	-0.023612376595978445
55	0xbfaf5e37bc40caa1	-0.0612656991292131
56	0x3f65f9b637ed1733	0.0026825484232259277
57	0xbfabc9dccb8daa34	-0.05427446350843859
58	0x3f847cd4d54109da	0.010003721960065205
59	0xbf9b422b094ffa6d	-0.026619598811516477
60	0x3f95444470c81791	0.02076823175777737
61	0xbf991ea3d1860428	-0.024530944503116242
62	0xbfabb612f474ac36	-0.054123489704885605
63	0xbf62b2bb73bdeaad	-0.0022824917959359454
64	0xbf972f76d9792274	-0.022641999267110482
65	0x3fafd619d2d51c30	0.06218033503187603
66	0x3fa9acce5ddef065	0.050146531065792734
67	0x3f968b03e113b796	0.02201467572461232
68	0xbf745f01a5ad8cb9	-0.004973417696280063
69	0xbf9a76eab7eeb20d	-0.025844256855338133
70	0x3f4523247d8bc947	0.0006450584579325368
71	0x3f725c66aabf6a44	0.004482651751426096
72	0x3f9c9596e48e9fef	0.027914388370533002
73	0xbf9968023f949ef3	-0.024810824518822504
74	0x3f80f7cfff3e5a7b	0.008285164811053783
75	0x3fa26325324a313f	0.03591266859902697
76	0xbf8b2665d82d2594	-0.013256831798247139
77	0xbf942fe4333ae6b9	-0.019713941218219875
78	0xbfa2da03de10e71d	-0.036819573266667606
79	0x3fae8954b26b9848	0.059641501216717574
80	0x3faf11f2a14fff7e	0.06068380564829477
81	0x3fa5cb9e5be57691	0.04256911155492305
82	0xbf8b54dcdd5da52f	-0.013345456605480336
83	0x3fa331743311d913	0.03748667834672594
84	0x3f8ea40d45bece79	0.014961341563185503
85	0xbfac9a5be57192d7	-0.05586516547990577
86	0xbf6c69882b3fbcff	-0.0034682902860293514
87	0x3fa11bd834c0c0f0	0.033415562095230444
88	0xbfa1dc1a72dc7b3b	-0.03488238002886709
89	0x3f923f21a6eb2909	0.017818952381994744
90	0xbf8e8f3bbf5bdca1	-0.014921633508022504
91	0xbf920c3f19736980	-0.01762484162177591
92	0x3fa20466d87f7816	0.03518983261868429
93	0x3f80ea59b6436119	0.008259487986308532
94	0x3f9fbc6f7a9e5e9f	0.03099226175217373
95	0xbf9c679c509997e7	-0.027738993091041577
96	0xbfacd37ff774f43c	-0.05630111594880602
97	0x3f99d7ab1bb6602f	0.025236772123747805
98	0x3f957b3da3b6b601	0.02097793876389709
99	0xbf8c2d6ceb317026	-0.013758517196201647
100	0xbf976442e3a2a370	-0.02284340395332002
101	0x3f7370d4b1155c92	0.004746275736884036
102	0x3fb0281aed593cf8	0.06311195654528834
103	0x3f875bf551d163fa	0.011405865249047398
104	0xbfa184206db591b4	-0.03421117152427958
105	0x3fafb302c35b305f	0.061912618968194215
106	0x3f9574f576ee25bd	0.020953975089957434
107	0x3f988ad45ebf5a00	0.02396709278385778
108	0x3fa6b95654745733	0.044382760819799215
109	0xbf972fac234643d3	-0.022642793324454246
110	0x3faa9c007dd6f94b	0.051971450196548995
111	0xbf81c4e019c34ff3	-0.00867629126188516
112	0xbfa9721833d6767b	-0.049698597267007615
113	0xbf81647b4c066e11	-0.008492434747316787
114	0xbf9e54cc9adc9b32	-0.029620358421335875
115	0x3fa2458e76e8c452	0.0356869239952934
116	0xbf93221ea575466d	-0.018684843872796387
117	0x3f8a4efc44e8ced2	0.012845965245197464
118	0x3f98b0b6f2e1bbe0	0.024111612867667165
119	0x3fa81d3981bfaf2b	0.04709796627852677
120	0x3f9f9314191beaf3	0.03083449748281004
121	0xbf519c7b2d05cd7e	-0.0010749056710580292
122	0xbf701f61e792b036	-0.003936178626798228
123	0x3f902aaa3e52bf44	0.0157877541102487
124	0x3f8dead64a54120a	0.014608072417567026
125	0xbfa0fb90eaaa633a	-0.0331692968804362
126	0xbf96aec923fa0678	-0.02215112955173601
127	0xbf812f0f35397244	-0.00839053994348505
128	0x3f6b1c966d86d1c5	0.0033095300716132502
129	0xbfa2f0fe3c6fe523	-0.03699488151318977
130	0xbfa17ac92a1bd9f6	-0.0341399063017213
131	0xbfae44bcfa0155a7	-0.05911818076917124
132	0x3fa85dccf87386d5	0.04759064228870861
133	0x3f9602ebf175b798	0.02149552022222387
134	0x3f97f813c01e90c0	0.023407276726758353
135	0xbfa368aa3d9a6d12	-0.03790790559761538
136	0x3f7084ba9dcf3944	0.004032830210191133
137	0x3f667e39d04115cd	0.002745736042956115
138	0x3fac3d0c64deba95	0.05515326243709243
139	0xbfa559e04b0811f5	-0.04170132556831511
140	0xbf81e8e91536b92d	-0.008745022735493347
141	0x3fa313706df6b281	0.037257684157656186
142	0xbfa22bcd64b40e6e	-0.035490435164345566
143	0x3f5ca0997bc8a533	0.0017472742903329008
144	0x3f9c9a0e5ddbf4de	0.02793142745848775
145	0xbfacc04e3e42b6ed	-0.05615467557923446
146	0xbf84f947a7a5fe54	-0.010241088680003653
147	0xbf72e9a23db96623	-0.004617341760956547
148	0xbf87ed3a25819281	-0.011682943601223574
149	0x3fb010d7f72ffea7	0.06275701317644665
150	0xbfa6c5362b98dc31	-0.04447335512343676
151	0xbfa6fab9e715d4cb	-0.044881638964321256
152	0xbf9feec814e969f9	-0.031184316898682927
153	0x3fa0acdce1fe2a7c	0.032568838679329
154	0xbf9b06cf95c38268	-0.026393168941356043
155	0xbf941021a7fb2fbd	-0.019592786672361962
156	0x3f9b2550476fbd2c	0.026509527549874054
157	0x3fa1ed6ea56d7347	0.03501458901766923
158	0x3f8931c93ca400f3	0.012301990664582685
159	0x3f9bcd11eeb86176	0.027149467654540037
160	0x3faa5926814ad7c2	0.051461413653143065
161	0x3f9837cf586c4be1	0.023650398036874413
162	0xbfac06baa03edab2	-0.05473883825418592
163	0xbfa2440bdcc38e8c	-0.035675402353971014
164	0xbf9350a720a9e7d8	-0.01886235367644659
165	0xbfa023525960ff68	-0.03151948300410262
166	0xbf8ed33f306db912	-0.015051358857558959
167	0x3f95a828128e29a2	0.02114927876713469
168	0xbfa558c57fd2cbe2	-0.04169289765686536
169	0x3fa9fec7389cafcc	0.05077192846360354
170	0xbf9f51936f59b325	-0.03058462493065685
171	0xbfa0188cb3e90a3b	-0.03143729873820119
172	0x3fa95d1b50a1f076	0.04953847274097793
173	0x3fa0eb03c26b5063	0.03304301975518411
174	0xbf981b17136e0131	-0.023540840683837053
175	0x3faef8291dbbd896	0.06048706520043472
176	0xbf9447051ace8167	-0.019802169572018437
177	0x3f951c2467d5dbd0	0.020615166509255378
178	0x3f1f9c5f4b6b4a85	0.0001205857432567213
179	0x3fac63918f318a60	0.05544714806525941
180	0xbf9fea4cc94439f7	-0.03116722086365972
181	0x3f9917e2d71946a8	0.024505180719933378
182	0x3f930e3727c347fe	0.018608915140084996
183	0x3fb0dc3d51d8b04c	0.06586058853344062
184	0x3f9501980c75e89a	0.020513892899068333
185	0xbfa1eeebcce4287d	-0.03502594829667858
186	0x3f9fb5ad6a1aee20	0.03096648178209993
187	0xbf95fe0a87a5658f	-0.02147690251272177
188	0x3f61f50bf8daf478	0.0021920427160169696
189	0xbf741e34661d0db2	-0.004911617930534561
190	0x3f58aff0c9b44fcd	0.001506791252556805
191	0xbf913588cb398f5d	-0.016805779842243285
192	0xbfaa968819bfc182	-0.051929715293115755
193	0x3f87f6e920308f1f	0.01170141343579406
194	0x3f9a9f0ea52e534b	0.025997380096288308
195	0xbfa337f58801e948	-0.03753630910155664
196	0x3fa87c93a330e013	0.04782544486118936
197	0xbfaae2e4a5d4b8f2	-0.05251230739882996
198	0xbf92fa1ecccb55d1	-0.018532258271837968
199	0xbfae3c90d2a82b24	-0.0590558297299906
200	0x3f98e6e2ab0df695	0.024318257990208442
201	0x3f935a3190726df5	0.01889874881872618
202	0xbfab5a67943af62f	-0.05342410740329872
203	0xbf9edb20d11260a6	-0.030132782707909776
204	0xbf934b7310992f2a	-0.018842504394611805
205	0x3f8182e0bd38fdbc	0.008550411009422436
206	0x3f9d0fc649a11509	0.028380487674685848
207	0xbf9b5612e7185359	-0.026695533137245906
208	0x3fa684c5edc4099c	0.0439817288152142
209	0xbf7721df61d664b9	-0.005647537790900597
210	0x3fab07cfd50bf77f	0.052793974644358414
211	0x3fa262e98e8cc401	0.035910891200167334
212	0x3fa61029bc412136	0.04309206412341597
213	0x3f9da7be3dd0f8c1	0.028960201762168184
214	0xbfada4af535b226b	-0.057897070813457706
215	0x3f9d9a07ea61a1df	0.028907893829826278
216	0xbf90d5d6af318dd7	-0.016440729563681557
217	0x3f9f4a7d60658469	0.030557593353823274
218	0xbfa6392517ea3095	-0.043404730958259176
219	0x3faaf0850747743a	0.05261626924377834
220	0xbf9d62d76f015268	-0.028697363043038854
221	0x3f950fee7fbd699b	0.020568586870788868
222	0x3fa416a859992e25	0.03923536390047059
223	0xbf8a14d365e3e0e5	-0.012735034510555862
224	0xbfabd41c8b47b1b8	-0.05435265731998434
225	0x3f99a9618bacc8f3	0.025060199880678046
226	0xbf900e78414cb9af	-0.01568019770200529
227	0xbfa871cb51cdda43	-0.04774318097672794
228	0xbf7cac027e432147	-0.006999978770359689
229	0x3f8e6820d01d8ca2	0.014847046233347708
230	0x3f97093ce438ae6a	0.02249617712929678
231	0xbf8e5fbb6b38597b	-0.014831031999204871
232	0xbf8332300bf60a1a	-0.00937306915762286
233	0xbf984d6f345ba046	-0.023732888765977365
234	0x3fa562a0ec287589	0.04176810152805916
235	0x3fafc8aec62f7127	0.062077962582153305
236	0x3f66fcca1fd3c49b	0.0028060863247608265
237	0x3f9aba829c03de5c	0.02610210492363617
238	0xbf975720a5125075	-0.022793302607695815
239	0x3fa5f4263b21de4d	0.04287833663778127
240	0x3fae794c29f21813	0.05951917659790253
241	0xbfa2ab5c1a797df9	-0.03646362136054999
242	0x3fab58b601ebca11	0.05341118596506445
243	0x3f8bb18a66a9f031	0.013522225626040637
244	0x3f9128a686703efb	0.01675663180873153
245	0xbfa60a606130d931	-0.04304791628276162
246	0x3f84ec0d84e87d96	0.010215860003028248
247	0x3f81764a59d50011	0.008526402346092284
248	0x3fac7e815bcfe73b	0.05565265889886325
249	0xbf179971083f906b	-9.002449411316261e-05
250	0xbfabc337d0c72784	-0.05422377036627693
251	0xbf912a1ac6f1ea9e	-0.01676217879546959
252	0x3f9e28cf6245af63	0.029452553151187454
253	0xbf9a6018041c6f83	-0.0257571938046648
254	0xbf8ce13c54e8d351	-0.014101477948409576
255	0xbf9f25d4551e3b0a	-0.030417745299526046
